node {
  name: "placeholders/nn_x"
  op: "Placeholder"
  device: "/job:worker"
  attr {
    key: "_output_shapes"
    value {
      list {
        shape {
          dim {
            size: -1
          }
          dim {
            size: 144
          }
        }
      }
    }
  }
  attr {
    key: "dtype"
    value {
      type: DT_FLOAT
    }
  }
  attr {
    key: "shape"
    value {
      shape {
      }
    }
  }
}
node {
  name: "placeholders/nn_q_t"
  op: "Placeholder"
  device: "/job:worker"
  attr {
    key: "_output_shapes"
    value {
      list {
        shape {
          dim {
            size: -1
          }
        }
      }
    }
  }
  attr {
    key: "dtype"
    value {
      type: DT_FLOAT
    }
  }
  attr {
    key: "shape"
    value {
      shape {
      }
    }
  }
}
node {
  name: "placeholders/nn_actions"
  op: "Placeholder"
  device: "/job:worker"
  attr {
    key: "_output_shapes"
    value {
      list {
        shape {
          dim {
            size: -1
          }
          dim {
            size: 4
          }
        }
      }
    }
  }
  attr {
    key: "dtype"
    value {
      type: DT_FLOAT
    }
  }
  attr {
    key: "shape"
    value {
      shape {
      }
    }
  }
}
node {
  name: "placeholders/nn_rewards"
  op: "Placeholder"
  device: "/job:worker"
  attr {
    key: "_output_shapes"
    value {
      list {
        shape {
          dim {
            size: -1
          }
        }
      }
    }
  }
  attr {
    key: "dtype"
    value {
      type: DT_FLOAT
    }
  }
  attr {
    key: "shape"
    value {
      shape {
      }
    }
  }
}
node {
  name: "placeholders/nn_terminals"
  op: "Placeholder"
  device: "/job:worker"
  attr {
    key: "_output_shapes"
    value {
      list {
        shape {
          dim {
            size: -1
          }
        }
      }
    }
  }
  attr {
    key: "dtype"
    value {
      type: DT_FLOAT
    }
  }
  attr {
    key: "shape"
    value {
      shape {
      }
    }
  }
}
node {
  name: "world_1/weight"
  op: "Variable"
  device: "/job:ps/task:0"
  attr {
    key: "_output_shapes"
    value {
      list {
        shape {
          dim {
            size: 144
          }
          dim {
            size: 1000
          }
        }
      }
    }
  }
  attr {
    key: "container"
    value {
      s: ""
    }
  }
  attr {
    key: "dtype"
    value {
      type: DT_FLOAT
    }
  }
  attr {
    key: "shape"
    value {
      shape {
        dim {
          size: 144
        }
        dim {
          size: 1000
        }
      }
    }
  }
  attr {
    key: "shared_name"
    value {
      s: ""
    }
  }
}
node {
  name: "world_1/weight/Initializer/truncated_normal/shape"
  op: "Const"
  device: "/job:ps/task:0"
  attr {
    key: "_class"
    value {
      list {
        s: "loc:@world_1/weight"
      }
    }
  }
  attr {
    key: "_output_shapes"
    value {
      list {
        shape {
          dim {
            size: 2
          }
        }
      }
    }
  }
  attr {
    key: "dtype"
    value {
      type: DT_INT32
    }
  }
  attr {
    key: "value"
    value {
      tensor {
        dtype: DT_INT32
        tensor_shape {
          dim {
            size: 2
          }
        }
        tensor_content: "\220\000\000\000\350\003\000\000"
      }
    }
  }
}
node {
  name: "world_1/weight/Initializer/truncated_normal/mean"
  op: "Const"
  device: "/job:ps/task:0"
  attr {
    key: "_class"
    value {
      list {
        s: "loc:@world_1/weight"
      }
    }
  }
  attr {
    key: "_output_shapes"
    value {
      list {
        shape {
        }
      }
    }
  }
  attr {
    key: "dtype"
    value {
      type: DT_FLOAT
    }
  }
  attr {
    key: "value"
    value {
      tensor {
        dtype: DT_FLOAT
        tensor_shape {
        }
        float_val: 0.0
      }
    }
  }
}
node {
  name: "world_1/weight/Initializer/truncated_normal/stddev"
  op: "Const"
  device: "/job:ps/task:0"
  attr {
    key: "_class"
    value {
      list {
        s: "loc:@world_1/weight"
      }
    }
  }
  attr {
    key: "_output_shapes"
    value {
      list {
        shape {
        }
      }
    }
  }
  attr {
    key: "dtype"
    value {
      type: DT_FLOAT
    }
  }
  attr {
    key: "value"
    value {
      tensor {
        dtype: DT_FLOAT
        tensor_shape {
        }
        float_val: 1.0
      }
    }
  }
}
node {
  name: "world_1/weight/Initializer/truncated_normal/TruncatedNormal"
  op: "TruncatedNormal"
  input: "world_1/weight/Initializer/truncated_normal/shape"
  device: "/job:ps/task:0"
  attr {
    key: "T"
    value {
      type: DT_INT32
    }
  }
  attr {
    key: "_class"
    value {
      list {
        s: "loc:@world_1/weight"
      }
    }
  }
  attr {
    key: "_output_shapes"
    value {
      list {
        shape {
          dim {
            size: 144
          }
          dim {
            size: 1000
          }
        }
      }
    }
  }
  attr {
    key: "dtype"
    value {
      type: DT_FLOAT
    }
  }
  attr {
    key: "seed"
    value {
      i: 0
    }
  }
  attr {
    key: "seed2"
    value {
      i: 0
    }
  }
}
node {
  name: "world_1/weight/Initializer/truncated_normal/mul"
  op: "Mul"
  input: "world_1/weight/Initializer/truncated_normal/TruncatedNormal"
  input: "world_1/weight/Initializer/truncated_normal/stddev"
  device: "/job:ps/task:0"
  attr {
    key: "T"
    value {
      type: DT_FLOAT
    }
  }
  attr {
    key: "_class"
    value {
      list {
        s: "loc:@world_1/weight"
      }
    }
  }
  attr {
    key: "_output_shapes"
    value {
      list {
        shape {
          dim {
            size: 144
          }
          dim {
            size: 1000
          }
        }
      }
    }
  }
}
node {
  name: "world_1/weight/Initializer/truncated_normal"
  op: "Add"
  input: "world_1/weight/Initializer/truncated_normal/mul"
  input: "world_1/weight/Initializer/truncated_normal/mean"
  device: "/job:ps/task:0"
  attr {
    key: "T"
    value {
      type: DT_FLOAT
    }
  }
  attr {
    key: "_class"
    value {
      list {
        s: "loc:@world_1/weight"
      }
    }
  }
  attr {
    key: "_output_shapes"
    value {
      list {
        shape {
          dim {
            size: 144
          }
          dim {
            size: 1000
          }
        }
      }
    }
  }
}
node {
  name: "world_1/weight/Assign"
  op: "Assign"
  input: "world_1/weight"
  input: "world_1/weight/Initializer/truncated_normal"
  device: "/job:ps/task:0"
  attr {
    key: "T"
    value {
      type: DT_FLOAT
    }
  }
  attr {
    key: "_class"
    value {
      list {
        s: "loc:@world_1/weight"
      }
    }
  }
  attr {
    key: "_output_shapes"
    value {
      list {
        shape {
          dim {
            size: 144
          }
          dim {
            size: 1000
          }
        }
      }
    }
  }
  attr {
    key: "use_locking"
    value {
      b: true
    }
  }
  attr {
    key: "validate_shape"
    value {
      b: true
    }
  }
}
node {
  name: "world_1/weight/read"
  op: "Identity"
  input: "world_1/weight"
  device: "/job:ps/task:0"
  attr {
    key: "T"
    value {
      type: DT_FLOAT
    }
  }
  attr {
    key: "_class"
    value {
      list {
        s: "loc:@world_1/weight"
      }
    }
  }
  attr {
    key: "_output_shapes"
    value {
      list {
        shape {
          dim {
            size: 144
          }
          dim {
            size: 1000
          }
        }
      }
    }
  }
}
node {
  name: "world_1/bias"
  op: "Variable"
  device: "/job:ps/task:1"
  attr {
    key: "_output_shapes"
    value {
      list {
        shape {
          dim {
            size: 1000
          }
        }
      }
    }
  }
  attr {
    key: "container"
    value {
      s: ""
    }
  }
  attr {
    key: "dtype"
    value {
      type: DT_FLOAT
    }
  }
  attr {
    key: "shape"
    value {
      shape {
        dim {
          size: 1000
        }
      }
    }
  }
  attr {
    key: "shared_name"
    value {
      s: ""
    }
  }
}
node {
  name: "world_1/bias/Initializer/Const"
  op: "Const"
  device: "/job:ps/task:1"
  attr {
    key: "_class"
    value {
      list {
        s: "loc:@world_1/bias"
      }
    }
  }
  attr {
    key: "_output_shapes"
    value {
      list {
        shape {
          dim {
            size: 1000
          }
        }
      }
    }
  }
  attr {
    key: "dtype"
    value {
      type: DT_FLOAT
    }
  }
  attr {
    key: "value"
    value {
      tensor {
        dtype: DT_FLOAT
        tensor_shape {
          dim {
            size: 1000
          }
        }
        float_val: 0.10000000149
      }
    }
  }
}
node {
  name: "world_1/bias/Assign"
  op: "Assign"
  input: "world_1/bias"
  input: "world_1/bias/Initializer/Const"
  device: "/job:ps/task:1"
  attr {
    key: "T"
    value {
      type: DT_FLOAT
    }
  }
  attr {
    key: "_class"
    value {
      list {
        s: "loc:@world_1/bias"
      }
    }
  }
  attr {
    key: "_output_shapes"
    value {
      list {
        shape {
          dim {
            size: 1000
          }
        }
      }
    }
  }
  attr {
    key: "use_locking"
    value {
      b: true
    }
  }
  attr {
    key: "validate_shape"
    value {
      b: true
    }
  }
}
node {
  name: "world_1/bias/read"
  op: "Identity"
  input: "world_1/bias"
  device: "/job:ps/task:1"
  attr {
    key: "T"
    value {
      type: DT_FLOAT
    }
  }
  attr {
    key: "_class"
    value {
      list {
        s: "loc:@world_1/bias"
      }
    }
  }
  attr {
    key: "_output_shapes"
    value {
      list {
        shape {
          dim {
            size: 1000
          }
        }
      }
    }
  }
}
node {
  name: "world_1/MatMul"
  op: "MatMul"
  input: "placeholders/nn_x"
  input: "world_1/weight/read"
  device: "/job:worker"
  attr {
    key: "T"
    value {
      type: DT_FLOAT
    }
  }
  attr {
    key: "_output_shapes"
    value {
      list {
        shape {
          dim {
            size: -1
          }
          dim {
            size: 1000
          }
        }
      }
    }
  }
  attr {
    key: "transpose_a"
    value {
      b: false
    }
  }
  attr {
    key: "transpose_b"
    value {
      b: false
    }
  }
}
node {
  name: "world_1/Add"
  op: "Add"
  input: "world_1/MatMul"
  input: "world_1/bias/read"
  device: "/job:worker"
  attr {
    key: "T"
    value {
      type: DT_FLOAT
    }
  }
  attr {
    key: "_output_shapes"
    value {
      list {
        shape {
          dim {
            size: -1
          }
          dim {
            size: 1000
          }
        }
      }
    }
  }
}
node {
  name: "world_1/output"
  op: "Relu"
  input: "world_1/Add"
  device: "/job:worker"
  attr {
    key: "T"
    value {
      type: DT_FLOAT
    }
  }
  attr {
    key: "_output_shapes"
    value {
      list {
        shape {
          dim {
            size: -1
          }
          dim {
            size: 1000
          }
        }
      }
    }
  }
}
node {
  name: "task_1/weight"
  op: "Variable"
  device: "/job:ps/task:2"
  attr {
    key: "_output_shapes"
    value {
      list {
        shape {
          dim {
            size: 1000
          }
          dim {
            size: 1000
          }
        }
      }
    }
  }
  attr {
    key: "container"
    value {
      s: ""
    }
  }
  attr {
    key: "dtype"
    value {
      type: DT_FLOAT
    }
  }
  attr {
    key: "shape"
    value {
      shape {
        dim {
          size: 1000
        }
        dim {
          size: 1000
        }
      }
    }
  }
  attr {
    key: "shared_name"
    value {
      s: ""
    }
  }
}
node {
  name: "task_1/weight/Initializer/truncated_normal/shape"
  op: "Const"
  device: "/job:ps/task:2"
  attr {
    key: "_class"
    value {
      list {
        s: "loc:@task_1/weight"
      }
    }
  }
  attr {
    key: "_output_shapes"
    value {
      list {
        shape {
          dim {
            size: 2
          }
        }
      }
    }
  }
  attr {
    key: "dtype"
    value {
      type: DT_INT32
    }
  }
  attr {
    key: "value"
    value {
      tensor {
        dtype: DT_INT32
        tensor_shape {
          dim {
            size: 2
          }
        }
        tensor_content: "\350\003\000\000\350\003\000\000"
      }
    }
  }
}
node {
  name: "task_1/weight/Initializer/truncated_normal/mean"
  op: "Const"
  device: "/job:ps/task:2"
  attr {
    key: "_class"
    value {
      list {
        s: "loc:@task_1/weight"
      }
    }
  }
  attr {
    key: "_output_shapes"
    value {
      list {
        shape {
        }
      }
    }
  }
  attr {
    key: "dtype"
    value {
      type: DT_FLOAT
    }
  }
  attr {
    key: "value"
    value {
      tensor {
        dtype: DT_FLOAT
        tensor_shape {
        }
        float_val: 0.0
      }
    }
  }
}
node {
  name: "task_1/weight/Initializer/truncated_normal/stddev"
  op: "Const"
  device: "/job:ps/task:2"
  attr {
    key: "_class"
    value {
      list {
        s: "loc:@task_1/weight"
      }
    }
  }
  attr {
    key: "_output_shapes"
    value {
      list {
        shape {
        }
      }
    }
  }
  attr {
    key: "dtype"
    value {
      type: DT_FLOAT
    }
  }
  attr {
    key: "value"
    value {
      tensor {
        dtype: DT_FLOAT
        tensor_shape {
        }
        float_val: 1.0
      }
    }
  }
}
node {
  name: "task_1/weight/Initializer/truncated_normal/TruncatedNormal"
  op: "TruncatedNormal"
  input: "task_1/weight/Initializer/truncated_normal/shape"
  device: "/job:ps/task:2"
  attr {
    key: "T"
    value {
      type: DT_INT32
    }
  }
  attr {
    key: "_class"
    value {
      list {
        s: "loc:@task_1/weight"
      }
    }
  }
  attr {
    key: "_output_shapes"
    value {
      list {
        shape {
          dim {
            size: 1000
          }
          dim {
            size: 1000
          }
        }
      }
    }
  }
  attr {
    key: "dtype"
    value {
      type: DT_FLOAT
    }
  }
  attr {
    key: "seed"
    value {
      i: 0
    }
  }
  attr {
    key: "seed2"
    value {
      i: 0
    }
  }
}
node {
  name: "task_1/weight/Initializer/truncated_normal/mul"
  op: "Mul"
  input: "task_1/weight/Initializer/truncated_normal/TruncatedNormal"
  input: "task_1/weight/Initializer/truncated_normal/stddev"
  device: "/job:ps/task:2"
  attr {
    key: "T"
    value {
      type: DT_FLOAT
    }
  }
  attr {
    key: "_class"
    value {
      list {
        s: "loc:@task_1/weight"
      }
    }
  }
  attr {
    key: "_output_shapes"
    value {
      list {
        shape {
          dim {
            size: 1000
          }
          dim {
            size: 1000
          }
        }
      }
    }
  }
}
node {
  name: "task_1/weight/Initializer/truncated_normal"
  op: "Add"
  input: "task_1/weight/Initializer/truncated_normal/mul"
  input: "task_1/weight/Initializer/truncated_normal/mean"
  device: "/job:ps/task:2"
  attr {
    key: "T"
    value {
      type: DT_FLOAT
    }
  }
  attr {
    key: "_class"
    value {
      list {
        s: "loc:@task_1/weight"
      }
    }
  }
  attr {
    key: "_output_shapes"
    value {
      list {
        shape {
          dim {
            size: 1000
          }
          dim {
            size: 1000
          }
        }
      }
    }
  }
}
node {
  name: "task_1/weight/Assign"
  op: "Assign"
  input: "task_1/weight"
  input: "task_1/weight/Initializer/truncated_normal"
  device: "/job:ps/task:2"
  attr {
    key: "T"
    value {
      type: DT_FLOAT
    }
  }
  attr {
    key: "_class"
    value {
      list {
        s: "loc:@task_1/weight"
      }
    }
  }
  attr {
    key: "_output_shapes"
    value {
      list {
        shape {
          dim {
            size: 1000
          }
          dim {
            size: 1000
          }
        }
      }
    }
  }
  attr {
    key: "use_locking"
    value {
      b: true
    }
  }
  attr {
    key: "validate_shape"
    value {
      b: true
    }
  }
}
node {
  name: "task_1/weight/read"
  op: "Identity"
  input: "task_1/weight"
  device: "/job:ps/task:2"
  attr {
    key: "T"
    value {
      type: DT_FLOAT
    }
  }
  attr {
    key: "_class"
    value {
      list {
        s: "loc:@task_1/weight"
      }
    }
  }
  attr {
    key: "_output_shapes"
    value {
      list {
        shape {
          dim {
            size: 1000
          }
          dim {
            size: 1000
          }
        }
      }
    }
  }
}
node {
  name: "task_1/bias"
  op: "Variable"
  device: "/job:ps/task:3"
  attr {
    key: "_output_shapes"
    value {
      list {
        shape {
          dim {
            size: 1000
          }
        }
      }
    }
  }
  attr {
    key: "container"
    value {
      s: ""
    }
  }
  attr {
    key: "dtype"
    value {
      type: DT_FLOAT
    }
  }
  attr {
    key: "shape"
    value {
      shape {
        dim {
          size: 1000
        }
      }
    }
  }
  attr {
    key: "shared_name"
    value {
      s: ""
    }
  }
}
node {
  name: "task_1/bias/Initializer/Const"
  op: "Const"
  device: "/job:ps/task:3"
  attr {
    key: "_class"
    value {
      list {
        s: "loc:@task_1/bias"
      }
    }
  }
  attr {
    key: "_output_shapes"
    value {
      list {
        shape {
          dim {
            size: 1000
          }
        }
      }
    }
  }
  attr {
    key: "dtype"
    value {
      type: DT_FLOAT
    }
  }
  attr {
    key: "value"
    value {
      tensor {
        dtype: DT_FLOAT
        tensor_shape {
          dim {
            size: 1000
          }
        }
        float_val: 0.10000000149
      }
    }
  }
}
node {
  name: "task_1/bias/Assign"
  op: "Assign"
  input: "task_1/bias"
  input: "task_1/bias/Initializer/Const"
  device: "/job:ps/task:3"
  attr {
    key: "T"
    value {
      type: DT_FLOAT
    }
  }
  attr {
    key: "_class"
    value {
      list {
        s: "loc:@task_1/bias"
      }
    }
  }
  attr {
    key: "_output_shapes"
    value {
      list {
        shape {
          dim {
            size: 1000
          }
        }
      }
    }
  }
  attr {
    key: "use_locking"
    value {
      b: true
    }
  }
  attr {
    key: "validate_shape"
    value {
      b: true
    }
  }
}
node {
  name: "task_1/bias/read"
  op: "Identity"
  input: "task_1/bias"
  device: "/job:ps/task:3"
  attr {
    key: "T"
    value {
      type: DT_FLOAT
    }
  }
  attr {
    key: "_class"
    value {
      list {
        s: "loc:@task_1/bias"
      }
    }
  }
  attr {
    key: "_output_shapes"
    value {
      list {
        shape {
          dim {
            size: 1000
          }
        }
      }
    }
  }
}
node {
  name: "task_1/MatMul"
  op: "MatMul"
  input: "world_1/output"
  input: "task_1/weight/read"
  device: "/job:worker"
  attr {
    key: "T"
    value {
      type: DT_FLOAT
    }
  }
  attr {
    key: "_output_shapes"
    value {
      list {
        shape {
          dim {
            size: -1
          }
          dim {
            size: 1000
          }
        }
      }
    }
  }
  attr {
    key: "transpose_a"
    value {
      b: false
    }
  }
  attr {
    key: "transpose_b"
    value {
      b: false
    }
  }
}
node {
  name: "task_1/Add"
  op: "Add"
  input: "task_1/MatMul"
  input: "task_1/bias/read"
  device: "/job:worker"
  attr {
    key: "T"
    value {
      type: DT_FLOAT
    }
  }
  attr {
    key: "_output_shapes"
    value {
      list {
        shape {
          dim {
            size: -1
          }
          dim {
            size: 1000
          }
        }
      }
    }
  }
}
node {
  name: "task_1/output"
  op: "Relu"
  input: "task_1/Add"
  device: "/job:worker"
  attr {
    key: "T"
    value {
      type: DT_FLOAT
    }
  }
  attr {
    key: "_output_shapes"
    value {
      list {
        shape {
          dim {
            size: -1
          }
          dim {
            size: 1000
          }
        }
      }
    }
  }
}
node {
  name: "agent_1/weight"
  op: "Variable"
  device: "/job:ps/task:4"
  attr {
    key: "_output_shapes"
    value {
      list {
        shape {
          dim {
            size: 1000
          }
          dim {
            size: 4
          }
        }
      }
    }
  }
  attr {
    key: "container"
    value {
      s: ""
    }
  }
  attr {
    key: "dtype"
    value {
      type: DT_FLOAT
    }
  }
  attr {
    key: "shape"
    value {
      shape {
        dim {
          size: 1000
        }
        dim {
          size: 4
        }
      }
    }
  }
  attr {
    key: "shared_name"
    value {
      s: ""
    }
  }
}
node {
  name: "agent_1/weight/Initializer/truncated_normal/shape"
  op: "Const"
  device: "/job:ps/task:4"
  attr {
    key: "_class"
    value {
      list {
        s: "loc:@agent_1/weight"
      }
    }
  }
  attr {
    key: "_output_shapes"
    value {
      list {
        shape {
          dim {
            size: 2
          }
        }
      }
    }
  }
  attr {
    key: "dtype"
    value {
      type: DT_INT32
    }
  }
  attr {
    key: "value"
    value {
      tensor {
        dtype: DT_INT32
        tensor_shape {
          dim {
            size: 2
          }
        }
        tensor_content: "\350\003\000\000\004\000\000\000"
      }
    }
  }
}
node {
  name: "agent_1/weight/Initializer/truncated_normal/mean"
  op: "Const"
  device: "/job:ps/task:4"
  attr {
    key: "_class"
    value {
      list {
        s: "loc:@agent_1/weight"
      }
    }
  }
  attr {
    key: "_output_shapes"
    value {
      list {
        shape {
        }
      }
    }
  }
  attr {
    key: "dtype"
    value {
      type: DT_FLOAT
    }
  }
  attr {
    key: "value"
    value {
      tensor {
        dtype: DT_FLOAT
        tensor_shape {
        }
        float_val: 0.0
      }
    }
  }
}
node {
  name: "agent_1/weight/Initializer/truncated_normal/stddev"
  op: "Const"
  device: "/job:ps/task:4"
  attr {
    key: "_class"
    value {
      list {
        s: "loc:@agent_1/weight"
      }
    }
  }
  attr {
    key: "_output_shapes"
    value {
      list {
        shape {
        }
      }
    }
  }
  attr {
    key: "dtype"
    value {
      type: DT_FLOAT
    }
  }
  attr {
    key: "value"
    value {
      tensor {
        dtype: DT_FLOAT
        tensor_shape {
        }
        float_val: 1.0
      }
    }
  }
}
node {
  name: "agent_1/weight/Initializer/truncated_normal/TruncatedNormal"
  op: "TruncatedNormal"
  input: "agent_1/weight/Initializer/truncated_normal/shape"
  device: "/job:ps/task:4"
  attr {
    key: "T"
    value {
      type: DT_INT32
    }
  }
  attr {
    key: "_class"
    value {
      list {
        s: "loc:@agent_1/weight"
      }
    }
  }
  attr {
    key: "_output_shapes"
    value {
      list {
        shape {
          dim {
            size: 1000
          }
          dim {
            size: 4
          }
        }
      }
    }
  }
  attr {
    key: "dtype"
    value {
      type: DT_FLOAT
    }
  }
  attr {
    key: "seed"
    value {
      i: 0
    }
  }
  attr {
    key: "seed2"
    value {
      i: 0
    }
  }
}
node {
  name: "agent_1/weight/Initializer/truncated_normal/mul"
  op: "Mul"
  input: "agent_1/weight/Initializer/truncated_normal/TruncatedNormal"
  input: "agent_1/weight/Initializer/truncated_normal/stddev"
  device: "/job:ps/task:4"
  attr {
    key: "T"
    value {
      type: DT_FLOAT
    }
  }
  attr {
    key: "_class"
    value {
      list {
        s: "loc:@agent_1/weight"
      }
    }
  }
  attr {
    key: "_output_shapes"
    value {
      list {
        shape {
          dim {
            size: 1000
          }
          dim {
            size: 4
          }
        }
      }
    }
  }
}
node {
  name: "agent_1/weight/Initializer/truncated_normal"
  op: "Add"
  input: "agent_1/weight/Initializer/truncated_normal/mul"
  input: "agent_1/weight/Initializer/truncated_normal/mean"
  device: "/job:ps/task:4"
  attr {
    key: "T"
    value {
      type: DT_FLOAT
    }
  }
  attr {
    key: "_class"
    value {
      list {
        s: "loc:@agent_1/weight"
      }
    }
  }
  attr {
    key: "_output_shapes"
    value {
      list {
        shape {
          dim {
            size: 1000
          }
          dim {
            size: 4
          }
        }
      }
    }
  }
}
node {
  name: "agent_1/weight/Assign"
  op: "Assign"
  input: "agent_1/weight"
  input: "agent_1/weight/Initializer/truncated_normal"
  device: "/job:ps/task:4"
  attr {
    key: "T"
    value {
      type: DT_FLOAT
    }
  }
  attr {
    key: "_class"
    value {
      list {
        s: "loc:@agent_1/weight"
      }
    }
  }
  attr {
    key: "_output_shapes"
    value {
      list {
        shape {
          dim {
            size: 1000
          }
          dim {
            size: 4
          }
        }
      }
    }
  }
  attr {
    key: "use_locking"
    value {
      b: true
    }
  }
  attr {
    key: "validate_shape"
    value {
      b: true
    }
  }
}
node {
  name: "agent_1/weight/read"
  op: "Identity"
  input: "agent_1/weight"
  device: "/job:ps/task:4"
  attr {
    key: "T"
    value {
      type: DT_FLOAT
    }
  }
  attr {
    key: "_class"
    value {
      list {
        s: "loc:@agent_1/weight"
      }
    }
  }
  attr {
    key: "_output_shapes"
    value {
      list {
        shape {
          dim {
            size: 1000
          }
          dim {
            size: 4
          }
        }
      }
    }
  }
}
node {
  name: "agent_1/bias"
  op: "Variable"
  device: "/job:ps/task:5"
  attr {
    key: "_output_shapes"
    value {
      list {
        shape {
          dim {
            size: 4
          }
        }
      }
    }
  }
  attr {
    key: "container"
    value {
      s: ""
    }
  }
  attr {
    key: "dtype"
    value {
      type: DT_FLOAT
    }
  }
  attr {
    key: "shape"
    value {
      shape {
        dim {
          size: 4
        }
      }
    }
  }
  attr {
    key: "shared_name"
    value {
      s: ""
    }
  }
}
node {
  name: "agent_1/bias/Initializer/Const"
  op: "Const"
  device: "/job:ps/task:5"
  attr {
    key: "_class"
    value {
      list {
        s: "loc:@agent_1/bias"
      }
    }
  }
  attr {
    key: "_output_shapes"
    value {
      list {
        shape {
          dim {
            size: 4
          }
        }
      }
    }
  }
  attr {
    key: "dtype"
    value {
      type: DT_FLOAT
    }
  }
  attr {
    key: "value"
    value {
      tensor {
        dtype: DT_FLOAT
        tensor_shape {
          dim {
            size: 4
          }
        }
        float_val: 0.10000000149
      }
    }
  }
}
node {
  name: "agent_1/bias/Assign"
  op: "Assign"
  input: "agent_1/bias"
  input: "agent_1/bias/Initializer/Const"
  device: "/job:ps/task:5"
  attr {
    key: "T"
    value {
      type: DT_FLOAT
    }
  }
  attr {
    key: "_class"
    value {
      list {
        s: "loc:@agent_1/bias"
      }
    }
  }
  attr {
    key: "_output_shapes"
    value {
      list {
        shape {
          dim {
            size: 4
          }
        }
      }
    }
  }
  attr {
    key: "use_locking"
    value {
      b: true
    }
  }
  attr {
    key: "validate_shape"
    value {
      b: true
    }
  }
}
node {
  name: "agent_1/bias/read"
  op: "Identity"
  input: "agent_1/bias"
  device: "/job:ps/task:5"
  attr {
    key: "T"
    value {
      type: DT_FLOAT
    }
  }
  attr {
    key: "_class"
    value {
      list {
        s: "loc:@agent_1/bias"
      }
    }
  }
  attr {
    key: "_output_shapes"
    value {
      list {
        shape {
          dim {
            size: 4
          }
        }
      }
    }
  }
}
node {
  name: "agent_1/MatMul"
  op: "MatMul"
  input: "task_1/output"
  input: "agent_1/weight/read"
  device: "/job:worker"
  attr {
    key: "T"
    value {
      type: DT_FLOAT
    }
  }
  attr {
    key: "_output_shapes"
    value {
      list {
        shape {
          dim {
            size: -1
          }
          dim {
            size: 4
          }
        }
      }
    }
  }
  attr {
    key: "transpose_a"
    value {
      b: false
    }
  }
  attr {
    key: "transpose_b"
    value {
      b: false
    }
  }
}
node {
  name: "agent_1/output_aka_y"
  op: "Add"
  input: "agent_1/MatMul"
  input: "agent_1/bias/read"
  device: "/job:worker"
  attr {
    key: "T"
    value {
      type: DT_FLOAT
    }
  }
  attr {
    key: "_output_shapes"
    value {
      list {
        shape {
          dim {
            size: -1
          }
          dim {
            size: 4
          }
        }
      }
    }
  }
}
node {
  name: "optimizer/discount"
  op: "Const"
  device: "/job:worker"
  attr {
    key: "_output_shapes"
    value {
      list {
        shape {
        }
      }
    }
  }
  attr {
    key: "dtype"
    value {
      type: DT_FLOAT
    }
  }
  attr {
    key: "value"
    value {
      tensor {
        dtype: DT_FLOAT
        tensor_shape {
        }
        float_val: 0.899999976158
      }
    }
  }
}
node {
  name: "optimizer/sub/x"
  op: "Const"
  device: "/job:worker"
  attr {
    key: "_output_shapes"
    value {
      list {
        shape {
        }
      }
    }
  }
  attr {
    key: "dtype"
    value {
      type: DT_FLOAT
    }
  }
  attr {
    key: "value"
    value {
      tensor {
        dtype: DT_FLOAT
        tensor_shape {
        }
        float_val: 1.0
      }
    }
  }
}
node {
  name: "optimizer/sub"
  op: "Sub"
  input: "optimizer/sub/x"
  input: "placeholders/nn_terminals"
  device: "/job:worker"
  attr {
    key: "T"
    value {
      type: DT_FLOAT
    }
  }
  attr {
    key: "_output_shapes"
    value {
      list {
        shape {
          dim {
            size: -1
          }
        }
      }
    }
  }
}
node {
  name: "optimizer/Mul"
  op: "Mul"
  input: "optimizer/discount"
  input: "placeholders/nn_q_t"
  device: "/job:worker"
  attr {
    key: "T"
    value {
      type: DT_FLOAT
    }
  }
  attr {
    key: "_output_shapes"
    value {
      list {
        shape {
          dim {
            size: -1
          }
        }
      }
    }
  }
}
node {
  name: "optimizer/Mul_1"
  op: "Mul"
  input: "optimizer/sub"
  input: "optimizer/Mul"
  device: "/job:worker"
  attr {
    key: "T"
    value {
      type: DT_FLOAT
    }
  }
  attr {
    key: "_output_shapes"
    value {
      list {
        shape {
          dim {
            size: -1
          }
        }
      }
    }
  }
}
node {
  name: "optimizer/true_y"
  op: "Add"
  input: "placeholders/nn_rewards"
  input: "optimizer/Mul_1"
  device: "/job:worker"
  attr {
    key: "T"
    value {
      type: DT_FLOAT
    }
  }
  attr {
    key: "_output_shapes"
    value {
      list {
        shape {
          dim {
            size: -1
          }
        }
      }
    }
  }
}
node {
  name: "optimizer/Mul_2"
  op: "Mul"
  input: "agent_1/output_aka_y"
  input: "placeholders/nn_actions"
  device: "/job:worker"
  attr {
    key: "T"
    value {
      type: DT_FLOAT
    }
  }
  attr {
    key: "_output_shapes"
    value {
      list {
        shape {
          dim {
            size: -1
          }
          dim {
            size: 4
          }
        }
      }
    }
  }
}
node {
  name: "optimizer/q_pred/reduction_indices"
  op: "Const"
  device: "/job:worker"
  attr {
    key: "_output_shapes"
    value {
      list {
        shape {
        }
      }
    }
  }
  attr {
    key: "dtype"
    value {
      type: DT_INT32
    }
  }
  attr {
    key: "value"
    value {
      tensor {
        dtype: DT_INT32
        tensor_shape {
        }
        int_val: 1
      }
    }
  }
}
node {
  name: "optimizer/q_pred"
  op: "Sum"
  input: "optimizer/Mul_2"
  input: "optimizer/q_pred/reduction_indices"
  device: "/job:worker"
  attr {
    key: "T"
    value {
      type: DT_FLOAT
    }
  }
  attr {
    key: "_output_shapes"
    value {
      list {
        shape {
          dim {
            size: -1
          }
        }
      }
    }
  }
  attr {
    key: "keep_dims"
    value {
      b: false
    }
  }
}
node {
  name: "optimizer/Sub"
  op: "Sub"
  input: "optimizer/true_y"
  input: "optimizer/q_pred"
  device: "/job:worker"
  attr {
    key: "T"
    value {
      type: DT_FLOAT
    }
  }
  attr {
    key: "_output_shapes"
    value {
      list {
        shape {
          dim {
            size: -1
          }
        }
      }
    }
  }
}
node {
  name: "optimizer/Pow/y"
  op: "Const"
  device: "/job:worker"
  attr {
    key: "_output_shapes"
    value {
      list {
        shape {
        }
      }
    }
  }
  attr {
    key: "dtype"
    value {
      type: DT_FLOAT
    }
  }
  attr {
    key: "value"
    value {
      tensor {
        dtype: DT_FLOAT
        tensor_shape {
        }
        float_val: 2.0
      }
    }
  }
}
node {
  name: "optimizer/Pow"
  op: "Pow"
  input: "optimizer/Sub"
  input: "optimizer/Pow/y"
  device: "/job:worker"
  attr {
    key: "T"
    value {
      type: DT_FLOAT
    }
  }
  attr {
    key: "_output_shapes"
    value {
      list {
        shape {
          dim {
            size: -1
          }
        }
      }
    }
  }
}
node {
  name: "optimizer/Rank"
  op: "Rank"
  input: "optimizer/Pow"
  device: "/job:worker"
  attr {
    key: "T"
    value {
      type: DT_FLOAT
    }
  }
  attr {
    key: "_output_shapes"
    value {
      list {
        shape {
        }
      }
    }
  }
}
node {
  name: "optimizer/range/start"
  op: "Const"
  device: "/job:worker"
  attr {
    key: "_output_shapes"
    value {
      list {
        shape {
        }
      }
    }
  }
  attr {
    key: "dtype"
    value {
      type: DT_INT32
    }
  }
  attr {
    key: "value"
    value {
      tensor {
        dtype: DT_INT32
        tensor_shape {
        }
        int_val: 0
      }
    }
  }
}
node {
  name: "optimizer/range/delta"
  op: "Const"
  device: "/job:worker"
  attr {
    key: "_output_shapes"
    value {
      list {
        shape {
        }
      }
    }
  }
  attr {
    key: "dtype"
    value {
      type: DT_INT32
    }
  }
  attr {
    key: "value"
    value {
      tensor {
        dtype: DT_INT32
        tensor_shape {
        }
        int_val: 1
      }
    }
  }
}
node {
  name: "optimizer/range"
  op: "Range"
  input: "optimizer/range/start"
  input: "optimizer/Rank"
  input: "optimizer/range/delta"
  device: "/job:worker"
  attr {
    key: "_output_shapes"
    value {
      list {
        shape {
          dim {
            size: 1
          }
        }
      }
    }
  }
}
node {
  name: "optimizer/cost"
  op: "Sum"
  input: "optimizer/Pow"
  input: "optimizer/range"
  device: "/job:worker"
  attr {
    key: "T"
    value {
      type: DT_FLOAT
    }
  }
  attr {
    key: "_output_shapes"
    value {
      list {
        shape {
        }
      }
    }
  }
  attr {
    key: "keep_dims"
    value {
      b: false
    }
  }
}
node {
  name: "optimizer/gradients/Shape"
  op: "Shape"
  input: "optimizer/cost"
  device: "/job:worker"
  attr {
    key: "T"
    value {
      type: DT_FLOAT
    }
  }
  attr {
    key: "_output_shapes"
    value {
      list {
        shape {
          dim {
          }
        }
      }
    }
  }
}
node {
  name: "optimizer/gradients/Const"
  op: "Const"
  device: "/job:worker"
  attr {
    key: "_output_shapes"
    value {
      list {
        shape {
        }
      }
    }
  }
  attr {
    key: "dtype"
    value {
      type: DT_FLOAT
    }
  }
  attr {
    key: "value"
    value {
      tensor {
        dtype: DT_FLOAT
        tensor_shape {
        }
        float_val: 1.0
      }
    }
  }
}
node {
  name: "optimizer/gradients/Fill"
  op: "Fill"
  input: "optimizer/gradients/Shape"
  input: "optimizer/gradients/Const"
  device: "/job:worker"
  attr {
    key: "T"
    value {
      type: DT_FLOAT
    }
  }
  attr {
    key: "_output_shapes"
    value {
      list {
        shape {
        }
      }
    }
  }
}
node {
  name: "optimizer/gradients/optimizer/cost_grad/Shape"
  op: "Shape"
  input: "optimizer/Pow"
  device: "/job:worker"
  attr {
    key: "T"
    value {
      type: DT_FLOAT
    }
  }
  attr {
    key: "_output_shapes"
    value {
      list {
        shape {
          dim {
            size: 1
          }
        }
      }
    }
  }
}
node {
  name: "optimizer/gradients/optimizer/cost_grad/Size"
  op: "Size"
  input: "optimizer/gradients/optimizer/cost_grad/Shape"
  device: "/job:worker"
  attr {
    key: "T"
    value {
      type: DT_INT32
    }
  }
  attr {
    key: "_output_shapes"
    value {
      list {
        shape {
        }
      }
    }
  }
}
node {
  name: "optimizer/gradients/optimizer/cost_grad/add"
  op: "Add"
  input: "optimizer/range"
  input: "optimizer/gradients/optimizer/cost_grad/Size"
  device: "/job:worker"
  attr {
    key: "T"
    value {
      type: DT_INT32
    }
  }
  attr {
    key: "_output_shapes"
    value {
      list {
        shape {
          dim {
            size: 1
          }
        }
      }
    }
  }
}
node {
  name: "optimizer/gradients/optimizer/cost_grad/mod"
  op: "Mod"
  input: "optimizer/gradients/optimizer/cost_grad/add"
  input: "optimizer/gradients/optimizer/cost_grad/Size"
  device: "/job:worker"
  attr {
    key: "T"
    value {
      type: DT_INT32
    }
  }
  attr {
    key: "_output_shapes"
    value {
      list {
        shape {
          dim {
            size: 1
          }
        }
      }
    }
  }
}
node {
  name: "optimizer/gradients/optimizer/cost_grad/Shape_1"
  op: "Shape"
  input: "optimizer/gradients/optimizer/cost_grad/mod"
  device: "/job:worker"
  attr {
    key: "T"
    value {
      type: DT_INT32
    }
  }
  attr {
    key: "_output_shapes"
    value {
      list {
        shape {
          dim {
            size: 1
          }
        }
      }
    }
  }
}
node {
  name: "optimizer/gradients/optimizer/cost_grad/range/start"
  op: "Const"
  device: "/job:worker"
  attr {
    key: "_output_shapes"
    value {
      list {
        shape {
        }
      }
    }
  }
  attr {
    key: "dtype"
    value {
      type: DT_INT32
    }
  }
  attr {
    key: "value"
    value {
      tensor {
        dtype: DT_INT32
        tensor_shape {
        }
        int_val: 0
      }
    }
  }
}
node {
  name: "optimizer/gradients/optimizer/cost_grad/range/delta"
  op: "Const"
  device: "/job:worker"
  attr {
    key: "_output_shapes"
    value {
      list {
        shape {
        }
      }
    }
  }
  attr {
    key: "dtype"
    value {
      type: DT_INT32
    }
  }
  attr {
    key: "value"
    value {
      tensor {
        dtype: DT_INT32
        tensor_shape {
        }
        int_val: 1
      }
    }
  }
}
node {
  name: "optimizer/gradients/optimizer/cost_grad/range"
  op: "Range"
  input: "optimizer/gradients/optimizer/cost_grad/range/start"
  input: "optimizer/gradients/optimizer/cost_grad/Size"
  input: "optimizer/gradients/optimizer/cost_grad/range/delta"
  device: "/job:worker"
  attr {
    key: "_output_shapes"
    value {
      list {
        shape {
          dim {
            size: 1
          }
        }
      }
    }
  }
}
node {
  name: "optimizer/gradients/optimizer/cost_grad/Fill/value"
  op: "Const"
  device: "/job:worker"
  attr {
    key: "_output_shapes"
    value {
      list {
        shape {
        }
      }
    }
  }
  attr {
    key: "dtype"
    value {
      type: DT_INT32
    }
  }
  attr {
    key: "value"
    value {
      tensor {
        dtype: DT_INT32
        tensor_shape {
        }
        int_val: 1
      }
    }
  }
}
node {
  name: "optimizer/gradients/optimizer/cost_grad/Fill"
  op: "Fill"
  input: "optimizer/gradients/optimizer/cost_grad/Shape_1"
  input: "optimizer/gradients/optimizer/cost_grad/Fill/value"
  device: "/job:worker"
  attr {
    key: "T"
    value {
      type: DT_INT32
    }
  }
  attr {
    key: "_output_shapes"
    value {
      list {
        shape {
          dim {
            size: 1
          }
        }
      }
    }
  }
}
node {
  name: "optimizer/gradients/optimizer/cost_grad/DynamicStitch"
  op: "DynamicStitch"
  input: "optimizer/gradients/optimizer/cost_grad/range"
  input: "optimizer/gradients/optimizer/cost_grad/mod"
  input: "optimizer/gradients/optimizer/cost_grad/Shape"
  input: "optimizer/gradients/optimizer/cost_grad/Fill"
  device: "/job:worker"
  attr {
    key: "N"
    value {
      i: 2
    }
  }
  attr {
    key: "T"
    value {
      type: DT_INT32
    }
  }
  attr {
    key: "_output_shapes"
    value {
      list {
        shape {
          dim {
            size: -1
          }
        }
      }
    }
  }
}
node {
  name: "optimizer/gradients/optimizer/cost_grad/Maximum/y"
  op: "Const"
  device: "/job:worker"
  attr {
    key: "_output_shapes"
    value {
      list {
        shape {
        }
      }
    }
  }
  attr {
    key: "dtype"
    value {
      type: DT_INT32
    }
  }
  attr {
    key: "value"
    value {
      tensor {
        dtype: DT_INT32
        tensor_shape {
        }
        int_val: 1
      }
    }
  }
}
node {
  name: "optimizer/gradients/optimizer/cost_grad/Maximum"
  op: "Maximum"
  input: "optimizer/gradients/optimizer/cost_grad/DynamicStitch"
  input: "optimizer/gradients/optimizer/cost_grad/Maximum/y"
  device: "/job:worker"
  attr {
    key: "T"
    value {
      type: DT_INT32
    }
  }
  attr {
    key: "_output_shapes"
    value {
      list {
        shape {
          dim {
            size: -1
          }
        }
      }
    }
  }
}
node {
  name: "optimizer/gradients/optimizer/cost_grad/floordiv"
  op: "Div"
  input: "optimizer/gradients/optimizer/cost_grad/Shape"
  input: "optimizer/gradients/optimizer/cost_grad/Maximum"
  device: "/job:worker"
  attr {
    key: "T"
    value {
      type: DT_INT32
    }
  }
  attr {
    key: "_output_shapes"
    value {
      list {
        shape {
          dim {
            size: -1
          }
        }
      }
    }
  }
}
node {
  name: "optimizer/gradients/optimizer/cost_grad/Reshape"
  op: "Reshape"
  input: "optimizer/gradients/Fill"
  input: "optimizer/gradients/optimizer/cost_grad/DynamicStitch"
  device: "/job:worker"
  attr {
    key: "T"
    value {
      type: DT_FLOAT
    }
  }
  attr {
    key: "_output_shapes"
    value {
      list {
        shape {
          unknown_rank: true
        }
      }
    }
  }
}
node {
  name: "optimizer/gradients/optimizer/cost_grad/Tile"
  op: "Tile"
  input: "optimizer/gradients/optimizer/cost_grad/Reshape"
  input: "optimizer/gradients/optimizer/cost_grad/floordiv"
  device: "/job:worker"
  attr {
    key: "T"
    value {
      type: DT_FLOAT
    }
  }
  attr {
    key: "_output_shapes"
    value {
      list {
        shape {
          dim {
            size: -1
          }
        }
      }
    }
  }
}
node {
  name: "optimizer/gradients/optimizer/Pow_grad/Shape"
  op: "Shape"
  input: "optimizer/Sub"
  device: "/job:worker"
  attr {
    key: "T"
    value {
      type: DT_FLOAT
    }
  }
  attr {
    key: "_output_shapes"
    value {
      list {
        shape {
          dim {
            size: 1
          }
        }
      }
    }
  }
}
node {
  name: "optimizer/gradients/optimizer/Pow_grad/Shape_1"
  op: "Shape"
  input: "optimizer/Pow/y"
  device: "/job:worker"
  attr {
    key: "T"
    value {
      type: DT_FLOAT
    }
  }
  attr {
    key: "_output_shapes"
    value {
      list {
        shape {
          dim {
          }
        }
      }
    }
  }
}
node {
  name: "optimizer/gradients/optimizer/Pow_grad/BroadcastGradientArgs"
  op: "BroadcastGradientArgs"
  input: "optimizer/gradients/optimizer/Pow_grad/Shape"
  input: "optimizer/gradients/optimizer/Pow_grad/Shape_1"
  device: "/job:worker"
  attr {
    key: "_output_shapes"
    value {
      list {
        shape {
          dim {
            size: -1
          }
        }
        shape {
          dim {
            size: -1
          }
        }
      }
    }
  }
}
node {
  name: "optimizer/gradients/optimizer/Pow_grad/mul"
  op: "Mul"
  input: "optimizer/gradients/optimizer/cost_grad/Tile"
  input: "optimizer/Pow/y"
  device: "/job:worker"
  attr {
    key: "T"
    value {
      type: DT_FLOAT
    }
  }
  attr {
    key: "_output_shapes"
    value {
      list {
        shape {
          dim {
            size: -1
          }
        }
      }
    }
  }
}
node {
  name: "optimizer/gradients/optimizer/Pow_grad/sub/y"
  op: "Const"
  device: "/job:worker"
  attr {
    key: "_output_shapes"
    value {
      list {
        shape {
        }
      }
    }
  }
  attr {
    key: "dtype"
    value {
      type: DT_FLOAT
    }
  }
  attr {
    key: "value"
    value {
      tensor {
        dtype: DT_FLOAT
        tensor_shape {
        }
        float_val: 1.0
      }
    }
  }
}
node {
  name: "optimizer/gradients/optimizer/Pow_grad/sub"
  op: "Sub"
  input: "optimizer/Pow/y"
  input: "optimizer/gradients/optimizer/Pow_grad/sub/y"
  device: "/job:worker"
  attr {
    key: "T"
    value {
      type: DT_FLOAT
    }
  }
  attr {
    key: "_output_shapes"
    value {
      list {
        shape {
        }
      }
    }
  }
}
node {
  name: "optimizer/gradients/optimizer/Pow_grad/Pow"
  op: "Pow"
  input: "optimizer/Sub"
  input: "optimizer/gradients/optimizer/Pow_grad/sub"
  device: "/job:worker"
  attr {
    key: "T"
    value {
      type: DT_FLOAT
    }
  }
  attr {
    key: "_output_shapes"
    value {
      list {
        shape {
          dim {
            size: -1
          }
        }
      }
    }
  }
}
node {
  name: "optimizer/gradients/optimizer/Pow_grad/mul_1"
  op: "Mul"
  input: "optimizer/gradients/optimizer/Pow_grad/mul"
  input: "optimizer/gradients/optimizer/Pow_grad/Pow"
  device: "/job:worker"
  attr {
    key: "T"
    value {
      type: DT_FLOAT
    }
  }
  attr {
    key: "_output_shapes"
    value {
      list {
        shape {
          dim {
            size: -1
          }
        }
      }
    }
  }
}
node {
  name: "optimizer/gradients/optimizer/Pow_grad/Sum"
  op: "Sum"
  input: "optimizer/gradients/optimizer/Pow_grad/mul_1"
  input: "optimizer/gradients/optimizer/Pow_grad/BroadcastGradientArgs"
  device: "/job:worker"
  attr {
    key: "T"
    value {
      type: DT_FLOAT
    }
  }
  attr {
    key: "_output_shapes"
    value {
      list {
        shape {
          unknown_rank: true
        }
      }
    }
  }
  attr {
    key: "keep_dims"
    value {
      b: false
    }
  }
}
node {
  name: "optimizer/gradients/optimizer/Pow_grad/Reshape"
  op: "Reshape"
  input: "optimizer/gradients/optimizer/Pow_grad/Sum"
  input: "optimizer/gradients/optimizer/Pow_grad/Shape"
  device: "/job:worker"
  attr {
    key: "T"
    value {
      type: DT_FLOAT
    }
  }
  attr {
    key: "_output_shapes"
    value {
      list {
        shape {
          dim {
            size: -1
          }
        }
      }
    }
  }
}
node {
  name: "optimizer/gradients/optimizer/Pow_grad/mul_2"
  op: "Mul"
  input: "optimizer/gradients/optimizer/cost_grad/Tile"
  input: "optimizer/Pow"
  device: "/job:worker"
  attr {
    key: "T"
    value {
      type: DT_FLOAT
    }
  }
  attr {
    key: "_output_shapes"
    value {
      list {
        shape {
          dim {
            size: -1
          }
        }
      }
    }
  }
}
node {
  name: "optimizer/gradients/optimizer/Pow_grad/Log"
  op: "Log"
  input: "optimizer/Sub"
  device: "/job:worker"
  attr {
    key: "T"
    value {
      type: DT_FLOAT
    }
  }
  attr {
    key: "_output_shapes"
    value {
      list {
        shape {
          dim {
            size: -1
          }
        }
      }
    }
  }
}
node {
  name: "optimizer/gradients/optimizer/Pow_grad/mul_3"
  op: "Mul"
  input: "optimizer/gradients/optimizer/Pow_grad/mul_2"
  input: "optimizer/gradients/optimizer/Pow_grad/Log"
  device: "/job:worker"
  attr {
    key: "T"
    value {
      type: DT_FLOAT
    }
  }
  attr {
    key: "_output_shapes"
    value {
      list {
        shape {
          dim {
            size: -1
          }
        }
      }
    }
  }
}
node {
  name: "optimizer/gradients/optimizer/Pow_grad/Sum_1"
  op: "Sum"
  input: "optimizer/gradients/optimizer/Pow_grad/mul_3"
  input: "optimizer/gradients/optimizer/Pow_grad/BroadcastGradientArgs:1"
  device: "/job:worker"
  attr {
    key: "T"
    value {
      type: DT_FLOAT
    }
  }
  attr {
    key: "_output_shapes"
    value {
      list {
        shape {
          unknown_rank: true
        }
      }
    }
  }
  attr {
    key: "keep_dims"
    value {
      b: false
    }
  }
}
node {
  name: "optimizer/gradients/optimizer/Pow_grad/Reshape_1"
  op: "Reshape"
  input: "optimizer/gradients/optimizer/Pow_grad/Sum_1"
  input: "optimizer/gradients/optimizer/Pow_grad/Shape_1"
  device: "/job:worker"
  attr {
    key: "T"
    value {
      type: DT_FLOAT
    }
  }
  attr {
    key: "_output_shapes"
    value {
      list {
        shape {
        }
      }
    }
  }
}
node {
  name: "optimizer/gradients/optimizer/Pow_grad/tuple/group_deps"
  op: "NoOp"
  input: "^optimizer/gradients/optimizer/Pow_grad/Reshape"
  input: "^optimizer/gradients/optimizer/Pow_grad/Reshape_1"
  device: "/job:worker"
}
node {
  name: "optimizer/gradients/optimizer/Pow_grad/tuple/control_dependency"
  op: "Identity"
  input: "optimizer/gradients/optimizer/Pow_grad/Reshape"
  input: "^optimizer/gradients/optimizer/Pow_grad/tuple/group_deps"
  device: "/job:worker"
  attr {
    key: "T"
    value {
      type: DT_FLOAT
    }
  }
  attr {
    key: "_class"
    value {
      list {
        s: "loc:@optimizer/gradients/optimizer/Pow_grad/Reshape"
      }
    }
  }
  attr {
    key: "_output_shapes"
    value {
      list {
        shape {
          dim {
            size: -1
          }
        }
      }
    }
  }
}
node {
  name: "optimizer/gradients/optimizer/Pow_grad/tuple/control_dependency_1"
  op: "Identity"
  input: "optimizer/gradients/optimizer/Pow_grad/Reshape_1"
  input: "^optimizer/gradients/optimizer/Pow_grad/tuple/group_deps"
  device: "/job:worker"
  attr {
    key: "T"
    value {
      type: DT_FLOAT
    }
  }
  attr {
    key: "_class"
    value {
      list {
        s: "loc:@optimizer/gradients/optimizer/Pow_grad/Reshape_1"
      }
    }
  }
  attr {
    key: "_output_shapes"
    value {
      list {
        shape {
        }
      }
    }
  }
}
node {
  name: "optimizer/gradients/optimizer/Sub_grad/Shape"
  op: "Shape"
  input: "optimizer/true_y"
  device: "/job:worker"
  attr {
    key: "T"
    value {
      type: DT_FLOAT
    }
  }
  attr {
    key: "_output_shapes"
    value {
      list {
        shape {
          dim {
            size: 1
          }
        }
      }
    }
  }
}
node {
  name: "optimizer/gradients/optimizer/Sub_grad/Shape_1"
  op: "Shape"
  input: "optimizer/q_pred"
  device: "/job:worker"
  attr {
    key: "T"
    value {
      type: DT_FLOAT
    }
  }
  attr {
    key: "_output_shapes"
    value {
      list {
        shape {
          dim {
            size: 1
          }
        }
      }
    }
  }
}
node {
  name: "optimizer/gradients/optimizer/Sub_grad/BroadcastGradientArgs"
  op: "BroadcastGradientArgs"
  input: "optimizer/gradients/optimizer/Sub_grad/Shape"
  input: "optimizer/gradients/optimizer/Sub_grad/Shape_1"
  device: "/job:worker"
  attr {
    key: "_output_shapes"
    value {
      list {
        shape {
          dim {
            size: -1
          }
        }
        shape {
          dim {
            size: -1
          }
        }
      }
    }
  }
}
node {
  name: "optimizer/gradients/optimizer/Sub_grad/Sum"
  op: "Sum"
  input: "optimizer/gradients/optimizer/Pow_grad/tuple/control_dependency"
  input: "optimizer/gradients/optimizer/Sub_grad/BroadcastGradientArgs"
  device: "/job:worker"
  attr {
    key: "T"
    value {
      type: DT_FLOAT
    }
  }
  attr {
    key: "_output_shapes"
    value {
      list {
        shape {
          unknown_rank: true
        }
      }
    }
  }
  attr {
    key: "keep_dims"
    value {
      b: false
    }
  }
}
node {
  name: "optimizer/gradients/optimizer/Sub_grad/Reshape"
  op: "Reshape"
  input: "optimizer/gradients/optimizer/Sub_grad/Sum"
  input: "optimizer/gradients/optimizer/Sub_grad/Shape"
  device: "/job:worker"
  attr {
    key: "T"
    value {
      type: DT_FLOAT
    }
  }
  attr {
    key: "_output_shapes"
    value {
      list {
        shape {
          dim {
            size: -1
          }
        }
      }
    }
  }
}
node {
  name: "optimizer/gradients/optimizer/Sub_grad/Sum_1"
  op: "Sum"
  input: "optimizer/gradients/optimizer/Pow_grad/tuple/control_dependency"
  input: "optimizer/gradients/optimizer/Sub_grad/BroadcastGradientArgs:1"
  device: "/job:worker"
  attr {
    key: "T"
    value {
      type: DT_FLOAT
    }
  }
  attr {
    key: "_output_shapes"
    value {
      list {
        shape {
          unknown_rank: true
        }
      }
    }
  }
  attr {
    key: "keep_dims"
    value {
      b: false
    }
  }
}
node {
  name: "optimizer/gradients/optimizer/Sub_grad/Neg"
  op: "Neg"
  input: "optimizer/gradients/optimizer/Sub_grad/Sum_1"
  device: "/job:worker"
  attr {
    key: "T"
    value {
      type: DT_FLOAT
    }
  }
  attr {
    key: "_output_shapes"
    value {
      list {
        shape {
          unknown_rank: true
        }
      }
    }
  }
}
node {
  name: "optimizer/gradients/optimizer/Sub_grad/Reshape_1"
  op: "Reshape"
  input: "optimizer/gradients/optimizer/Sub_grad/Neg"
  input: "optimizer/gradients/optimizer/Sub_grad/Shape_1"
  device: "/job:worker"
  attr {
    key: "T"
    value {
      type: DT_FLOAT
    }
  }
  attr {
    key: "_output_shapes"
    value {
      list {
        shape {
          dim {
            size: -1
          }
        }
      }
    }
  }
}
node {
  name: "optimizer/gradients/optimizer/Sub_grad/tuple/group_deps"
  op: "NoOp"
  input: "^optimizer/gradients/optimizer/Sub_grad/Reshape"
  input: "^optimizer/gradients/optimizer/Sub_grad/Reshape_1"
  device: "/job:worker"
}
node {
  name: "optimizer/gradients/optimizer/Sub_grad/tuple/control_dependency"
  op: "Identity"
  input: "optimizer/gradients/optimizer/Sub_grad/Reshape"
  input: "^optimizer/gradients/optimizer/Sub_grad/tuple/group_deps"
  device: "/job:worker"
  attr {
    key: "T"
    value {
      type: DT_FLOAT
    }
  }
  attr {
    key: "_class"
    value {
      list {
        s: "loc:@optimizer/gradients/optimizer/Sub_grad/Reshape"
      }
    }
  }
  attr {
    key: "_output_shapes"
    value {
      list {
        shape {
          dim {
            size: -1
          }
        }
      }
    }
  }
}
node {
  name: "optimizer/gradients/optimizer/Sub_grad/tuple/control_dependency_1"
  op: "Identity"
  input: "optimizer/gradients/optimizer/Sub_grad/Reshape_1"
  input: "^optimizer/gradients/optimizer/Sub_grad/tuple/group_deps"
  device: "/job:worker"
  attr {
    key: "T"
    value {
      type: DT_FLOAT
    }
  }
  attr {
    key: "_class"
    value {
      list {
        s: "loc:@optimizer/gradients/optimizer/Sub_grad/Reshape_1"
      }
    }
  }
  attr {
    key: "_output_shapes"
    value {
      list {
        shape {
          dim {
            size: -1
          }
        }
      }
    }
  }
}
node {
  name: "optimizer/gradients/optimizer/q_pred_grad/Shape"
  op: "Shape"
  input: "optimizer/Mul_2"
  device: "/job:worker"
  attr {
    key: "T"
    value {
      type: DT_FLOAT
    }
  }
  attr {
    key: "_output_shapes"
    value {
      list {
        shape {
          dim {
            size: 2
          }
        }
      }
    }
  }
}
node {
  name: "optimizer/gradients/optimizer/q_pred_grad/Size"
  op: "Size"
  input: "optimizer/gradients/optimizer/q_pred_grad/Shape"
  device: "/job:worker"
  attr {
    key: "T"
    value {
      type: DT_INT32
    }
  }
  attr {
    key: "_output_shapes"
    value {
      list {
        shape {
        }
      }
    }
  }
}
node {
  name: "optimizer/gradients/optimizer/q_pred_grad/add"
  op: "Add"
  input: "optimizer/q_pred/reduction_indices"
  input: "optimizer/gradients/optimizer/q_pred_grad/Size"
  device: "/job:worker"
  attr {
    key: "T"
    value {
      type: DT_INT32
    }
  }
  attr {
    key: "_output_shapes"
    value {
      list {
        shape {
        }
      }
    }
  }
}
node {
  name: "optimizer/gradients/optimizer/q_pred_grad/mod"
  op: "Mod"
  input: "optimizer/gradients/optimizer/q_pred_grad/add"
  input: "optimizer/gradients/optimizer/q_pred_grad/Size"
  device: "/job:worker"
  attr {
    key: "T"
    value {
      type: DT_INT32
    }
  }
  attr {
    key: "_output_shapes"
    value {
      list {
        shape {
        }
      }
    }
  }
}
node {
  name: "optimizer/gradients/optimizer/q_pred_grad/Shape_1"
  op: "Shape"
  input: "optimizer/gradients/optimizer/q_pred_grad/mod"
  device: "/job:worker"
  attr {
    key: "T"
    value {
      type: DT_INT32
    }
  }
  attr {
    key: "_output_shapes"
    value {
      list {
        shape {
          dim {
          }
        }
      }
    }
  }
}
node {
  name: "optimizer/gradients/optimizer/q_pred_grad/range/start"
  op: "Const"
  device: "/job:worker"
  attr {
    key: "_output_shapes"
    value {
      list {
        shape {
        }
      }
    }
  }
  attr {
    key: "dtype"
    value {
      type: DT_INT32
    }
  }
  attr {
    key: "value"
    value {
      tensor {
        dtype: DT_INT32
        tensor_shape {
        }
        int_val: 0
      }
    }
  }
}
node {
  name: "optimizer/gradients/optimizer/q_pred_grad/range/delta"
  op: "Const"
  device: "/job:worker"
  attr {
    key: "_output_shapes"
    value {
      list {
        shape {
        }
      }
    }
  }
  attr {
    key: "dtype"
    value {
      type: DT_INT32
    }
  }
  attr {
    key: "value"
    value {
      tensor {
        dtype: DT_INT32
        tensor_shape {
        }
        int_val: 1
      }
    }
  }
}
node {
  name: "optimizer/gradients/optimizer/q_pred_grad/range"
  op: "Range"
  input: "optimizer/gradients/optimizer/q_pred_grad/range/start"
  input: "optimizer/gradients/optimizer/q_pred_grad/Size"
  input: "optimizer/gradients/optimizer/q_pred_grad/range/delta"
  device: "/job:worker"
  attr {
    key: "_output_shapes"
    value {
      list {
        shape {
          dim {
            size: 2
          }
        }
      }
    }
  }
}
node {
  name: "optimizer/gradients/optimizer/q_pred_grad/Fill/value"
  op: "Const"
  device: "/job:worker"
  attr {
    key: "_output_shapes"
    value {
      list {
        shape {
        }
      }
    }
  }
  attr {
    key: "dtype"
    value {
      type: DT_INT32
    }
  }
  attr {
    key: "value"
    value {
      tensor {
        dtype: DT_INT32
        tensor_shape {
        }
        int_val: 1
      }
    }
  }
}
node {
  name: "optimizer/gradients/optimizer/q_pred_grad/Fill"
  op: "Fill"
  input: "optimizer/gradients/optimizer/q_pred_grad/Shape_1"
  input: "optimizer/gradients/optimizer/q_pred_grad/Fill/value"
  device: "/job:worker"
  attr {
    key: "T"
    value {
      type: DT_INT32
    }
  }
  attr {
    key: "_output_shapes"
    value {
      list {
        shape {
        }
      }
    }
  }
}
node {
  name: "optimizer/gradients/optimizer/q_pred_grad/DynamicStitch"
  op: "DynamicStitch"
  input: "optimizer/gradients/optimizer/q_pred_grad/range"
  input: "optimizer/gradients/optimizer/q_pred_grad/mod"
  input: "optimizer/gradients/optimizer/q_pred_grad/Shape"
  input: "optimizer/gradients/optimizer/q_pred_grad/Fill"
  device: "/job:worker"
  attr {
    key: "N"
    value {
      i: 2
    }
  }
  attr {
    key: "T"
    value {
      type: DT_INT32
    }
  }
  attr {
    key: "_output_shapes"
    value {
      list {
        shape {
          dim {
            size: -1
          }
        }
      }
    }
  }
}
node {
  name: "optimizer/gradients/optimizer/q_pred_grad/Maximum/y"
  op: "Const"
  device: "/job:worker"
  attr {
    key: "_output_shapes"
    value {
      list {
        shape {
        }
      }
    }
  }
  attr {
    key: "dtype"
    value {
      type: DT_INT32
    }
  }
  attr {
    key: "value"
    value {
      tensor {
        dtype: DT_INT32
        tensor_shape {
        }
        int_val: 1
      }
    }
  }
}
node {
  name: "optimizer/gradients/optimizer/q_pred_grad/Maximum"
  op: "Maximum"
  input: "optimizer/gradients/optimizer/q_pred_grad/DynamicStitch"
  input: "optimizer/gradients/optimizer/q_pred_grad/Maximum/y"
  device: "/job:worker"
  attr {
    key: "T"
    value {
      type: DT_INT32
    }
  }
  attr {
    key: "_output_shapes"
    value {
      list {
        shape {
          dim {
            size: -1
          }
        }
      }
    }
  }
}
node {
  name: "optimizer/gradients/optimizer/q_pred_grad/floordiv"
  op: "Div"
  input: "optimizer/gradients/optimizer/q_pred_grad/Shape"
  input: "optimizer/gradients/optimizer/q_pred_grad/Maximum"
  device: "/job:worker"
  attr {
    key: "T"
    value {
      type: DT_INT32
    }
  }
  attr {
    key: "_output_shapes"
    value {
      list {
        shape {
          dim {
            size: 2
          }
        }
      }
    }
  }
}
node {
  name: "optimizer/gradients/optimizer/q_pred_grad/Reshape"
  op: "Reshape"
  input: "optimizer/gradients/optimizer/Sub_grad/tuple/control_dependency_1"
  input: "optimizer/gradients/optimizer/q_pred_grad/DynamicStitch"
  device: "/job:worker"
  attr {
    key: "T"
    value {
      type: DT_FLOAT
    }
  }
  attr {
    key: "_output_shapes"
    value {
      list {
        shape {
          unknown_rank: true
        }
      }
    }
  }
}
node {
  name: "optimizer/gradients/optimizer/q_pred_grad/Tile"
  op: "Tile"
  input: "optimizer/gradients/optimizer/q_pred_grad/Reshape"
  input: "optimizer/gradients/optimizer/q_pred_grad/floordiv"
  device: "/job:worker"
  attr {
    key: "T"
    value {
      type: DT_FLOAT
    }
  }
  attr {
    key: "_output_shapes"
    value {
      list {
        shape {
          dim {
            size: -1
          }
          dim {
            size: 4
          }
        }
      }
    }
  }
}
node {
  name: "optimizer/gradients/optimizer/Mul_2_grad/Shape"
  op: "Shape"
  input: "agent_1/output_aka_y"
  device: "/job:worker"
  attr {
    key: "T"
    value {
      type: DT_FLOAT
    }
  }
  attr {
    key: "_output_shapes"
    value {
      list {
        shape {
          dim {
            size: 2
          }
        }
      }
    }
  }
}
node {
  name: "optimizer/gradients/optimizer/Mul_2_grad/Shape_1"
  op: "Shape"
  input: "placeholders/nn_actions"
  device: "/job:worker"
  attr {
    key: "T"
    value {
      type: DT_FLOAT
    }
  }
  attr {
    key: "_output_shapes"
    value {
      list {
        shape {
          dim {
            size: 2
          }
        }
      }
    }
  }
}
node {
  name: "optimizer/gradients/optimizer/Mul_2_grad/BroadcastGradientArgs"
  op: "BroadcastGradientArgs"
  input: "optimizer/gradients/optimizer/Mul_2_grad/Shape"
  input: "optimizer/gradients/optimizer/Mul_2_grad/Shape_1"
  device: "/job:worker"
  attr {
    key: "_output_shapes"
    value {
      list {
        shape {
          dim {
            size: -1
          }
        }
        shape {
          dim {
            size: -1
          }
        }
      }
    }
  }
}
node {
  name: "optimizer/gradients/optimizer/Mul_2_grad/mul"
  op: "Mul"
  input: "optimizer/gradients/optimizer/q_pred_grad/Tile"
  input: "placeholders/nn_actions"
  device: "/job:worker"
  attr {
    key: "T"
    value {
      type: DT_FLOAT
    }
  }
  attr {
    key: "_output_shapes"
    value {
      list {
        shape {
          dim {
            size: -1
          }
          dim {
            size: 4
          }
        }
      }
    }
  }
}
node {
  name: "optimizer/gradients/optimizer/Mul_2_grad/Sum"
  op: "Sum"
  input: "optimizer/gradients/optimizer/Mul_2_grad/mul"
  input: "optimizer/gradients/optimizer/Mul_2_grad/BroadcastGradientArgs"
  device: "/job:worker"
  attr {
    key: "T"
    value {
      type: DT_FLOAT
    }
  }
  attr {
    key: "_output_shapes"
    value {
      list {
        shape {
          unknown_rank: true
        }
      }
    }
  }
  attr {
    key: "keep_dims"
    value {
      b: false
    }
  }
}
node {
  name: "optimizer/gradients/optimizer/Mul_2_grad/Reshape"
  op: "Reshape"
  input: "optimizer/gradients/optimizer/Mul_2_grad/Sum"
  input: "optimizer/gradients/optimizer/Mul_2_grad/Shape"
  device: "/job:worker"
  attr {
    key: "T"
    value {
      type: DT_FLOAT
    }
  }
  attr {
    key: "_output_shapes"
    value {
      list {
        shape {
          dim {
            size: -1
          }
          dim {
            size: -1
          }
        }
      }
    }
  }
}
node {
  name: "optimizer/gradients/optimizer/Mul_2_grad/mul_1"
  op: "Mul"
  input: "agent_1/output_aka_y"
  input: "optimizer/gradients/optimizer/q_pred_grad/Tile"
  device: "/job:worker"
  attr {
    key: "T"
    value {
      type: DT_FLOAT
    }
  }
  attr {
    key: "_output_shapes"
    value {
      list {
        shape {
          dim {
            size: -1
          }
          dim {
            size: 4
          }
        }
      }
    }
  }
}
node {
  name: "optimizer/gradients/optimizer/Mul_2_grad/Sum_1"
  op: "Sum"
  input: "optimizer/gradients/optimizer/Mul_2_grad/mul_1"
  input: "optimizer/gradients/optimizer/Mul_2_grad/BroadcastGradientArgs:1"
  device: "/job:worker"
  attr {
    key: "T"
    value {
      type: DT_FLOAT
    }
  }
  attr {
    key: "_output_shapes"
    value {
      list {
        shape {
          unknown_rank: true
        }
      }
    }
  }
  attr {
    key: "keep_dims"
    value {
      b: false
    }
  }
}
node {
  name: "optimizer/gradients/optimizer/Mul_2_grad/Reshape_1"
  op: "Reshape"
  input: "optimizer/gradients/optimizer/Mul_2_grad/Sum_1"
  input: "optimizer/gradients/optimizer/Mul_2_grad/Shape_1"
  device: "/job:worker"
  attr {
    key: "T"
    value {
      type: DT_FLOAT
    }
  }
  attr {
    key: "_output_shapes"
    value {
      list {
        shape {
          dim {
            size: -1
          }
          dim {
            size: -1
          }
        }
      }
    }
  }
}
node {
  name: "optimizer/gradients/optimizer/Mul_2_grad/tuple/group_deps"
  op: "NoOp"
  input: "^optimizer/gradients/optimizer/Mul_2_grad/Reshape"
  input: "^optimizer/gradients/optimizer/Mul_2_grad/Reshape_1"
  device: "/job:worker"
}
node {
  name: "optimizer/gradients/optimizer/Mul_2_grad/tuple/control_dependency"
  op: "Identity"
  input: "optimizer/gradients/optimizer/Mul_2_grad/Reshape"
  input: "^optimizer/gradients/optimizer/Mul_2_grad/tuple/group_deps"
  device: "/job:worker"
  attr {
    key: "T"
    value {
      type: DT_FLOAT
    }
  }
  attr {
    key: "_class"
    value {
      list {
        s: "loc:@optimizer/gradients/optimizer/Mul_2_grad/Reshape"
      }
    }
  }
  attr {
    key: "_output_shapes"
    value {
      list {
        shape {
          dim {
            size: -1
          }
          dim {
            size: 4
          }
        }
      }
    }
  }
}
node {
  name: "optimizer/gradients/optimizer/Mul_2_grad/tuple/control_dependency_1"
  op: "Identity"
  input: "optimizer/gradients/optimizer/Mul_2_grad/Reshape_1"
  input: "^optimizer/gradients/optimizer/Mul_2_grad/tuple/group_deps"
  device: "/job:worker"
  attr {
    key: "T"
    value {
      type: DT_FLOAT
    }
  }
  attr {
    key: "_class"
    value {
      list {
        s: "loc:@optimizer/gradients/optimizer/Mul_2_grad/Reshape_1"
      }
    }
  }
  attr {
    key: "_output_shapes"
    value {
      list {
        shape {
          dim {
            size: -1
          }
          dim {
            size: 4
          }
        }
      }
    }
  }
}
node {
  name: "optimizer/gradients/agent_1/output_aka_y_grad/Shape"
  op: "Shape"
  input: "agent_1/MatMul"
  device: "/job:worker"
  attr {
    key: "T"
    value {
      type: DT_FLOAT
    }
  }
  attr {
    key: "_output_shapes"
    value {
      list {
        shape {
          dim {
            size: 2
          }
        }
      }
    }
  }
}
node {
  name: "optimizer/gradients/agent_1/output_aka_y_grad/Shape_1"
  op: "Shape"
  input: "agent_1/bias/read"
  device: "/job:worker"
  attr {
    key: "T"
    value {
      type: DT_FLOAT
    }
  }
  attr {
    key: "_output_shapes"
    value {
      list {
        shape {
          dim {
            size: 1
          }
        }
      }
    }
  }
}
node {
  name: "optimizer/gradients/agent_1/output_aka_y_grad/BroadcastGradientArgs"
  op: "BroadcastGradientArgs"
  input: "optimizer/gradients/agent_1/output_aka_y_grad/Shape"
  input: "optimizer/gradients/agent_1/output_aka_y_grad/Shape_1"
  device: "/job:worker"
  attr {
    key: "_output_shapes"
    value {
      list {
        shape {
          dim {
            size: -1
          }
        }
        shape {
          dim {
            size: -1
          }
        }
      }
    }
  }
}
node {
  name: "optimizer/gradients/agent_1/output_aka_y_grad/Sum"
  op: "Sum"
  input: "optimizer/gradients/optimizer/Mul_2_grad/tuple/control_dependency"
  input: "optimizer/gradients/agent_1/output_aka_y_grad/BroadcastGradientArgs"
  device: "/job:worker"
  attr {
    key: "T"
    value {
      type: DT_FLOAT
    }
  }
  attr {
    key: "_output_shapes"
    value {
      list {
        shape {
          unknown_rank: true
        }
      }
    }
  }
  attr {
    key: "keep_dims"
    value {
      b: false
    }
  }
}
node {
  name: "optimizer/gradients/agent_1/output_aka_y_grad/Reshape"
  op: "Reshape"
  input: "optimizer/gradients/agent_1/output_aka_y_grad/Sum"
  input: "optimizer/gradients/agent_1/output_aka_y_grad/Shape"
  device: "/job:worker"
  attr {
    key: "T"
    value {
      type: DT_FLOAT
    }
  }
  attr {
    key: "_output_shapes"
    value {
      list {
        shape {
          dim {
            size: -1
          }
          dim {
            size: -1
          }
        }
      }
    }
  }
}
node {
  name: "optimizer/gradients/agent_1/output_aka_y_grad/Sum_1"
  op: "Sum"
  input: "optimizer/gradients/optimizer/Mul_2_grad/tuple/control_dependency"
  input: "optimizer/gradients/agent_1/output_aka_y_grad/BroadcastGradientArgs:1"
  device: "/job:worker"
  attr {
    key: "T"
    value {
      type: DT_FLOAT
    }
  }
  attr {
    key: "_output_shapes"
    value {
      list {
        shape {
          unknown_rank: true
        }
      }
    }
  }
  attr {
    key: "keep_dims"
    value {
      b: false
    }
  }
}
node {
  name: "optimizer/gradients/agent_1/output_aka_y_grad/Reshape_1"
  op: "Reshape"
  input: "optimizer/gradients/agent_1/output_aka_y_grad/Sum_1"
  input: "optimizer/gradients/agent_1/output_aka_y_grad/Shape_1"
  device: "/job:worker"
  attr {
    key: "T"
    value {
      type: DT_FLOAT
    }
  }
  attr {
    key: "_output_shapes"
    value {
      list {
        shape {
          dim {
            size: 4
          }
        }
      }
    }
  }
}
node {
  name: "optimizer/gradients/agent_1/output_aka_y_grad/tuple/group_deps"
  op: "NoOp"
  input: "^optimizer/gradients/agent_1/output_aka_y_grad/Reshape"
  input: "^optimizer/gradients/agent_1/output_aka_y_grad/Reshape_1"
  device: "/job:worker"
}
node {
  name: "optimizer/gradients/agent_1/output_aka_y_grad/tuple/control_dependency"
  op: "Identity"
  input: "optimizer/gradients/agent_1/output_aka_y_grad/Reshape"
  input: "^optimizer/gradients/agent_1/output_aka_y_grad/tuple/group_deps"
  device: "/job:worker"
  attr {
    key: "T"
    value {
      type: DT_FLOAT
    }
  }
  attr {
    key: "_class"
    value {
      list {
        s: "loc:@optimizer/gradients/agent_1/output_aka_y_grad/Reshape"
      }
    }
  }
  attr {
    key: "_output_shapes"
    value {
      list {
        shape {
          dim {
            size: -1
          }
          dim {
            size: 4
          }
        }
      }
    }
  }
}
node {
  name: "optimizer/gradients/agent_1/output_aka_y_grad/tuple/control_dependency_1"
  op: "Identity"
  input: "optimizer/gradients/agent_1/output_aka_y_grad/Reshape_1"
  input: "^optimizer/gradients/agent_1/output_aka_y_grad/tuple/group_deps"
  device: "/job:worker"
  attr {
    key: "T"
    value {
      type: DT_FLOAT
    }
  }
  attr {
    key: "_class"
    value {
      list {
        s: "loc:@optimizer/gradients/agent_1/output_aka_y_grad/Reshape_1"
      }
    }
  }
  attr {
    key: "_output_shapes"
    value {
      list {
        shape {
          dim {
            size: 4
          }
        }
      }
    }
  }
}
node {
  name: "optimizer/gradients/agent_1/MatMul_grad/MatMul"
  op: "MatMul"
  input: "optimizer/gradients/agent_1/output_aka_y_grad/tuple/control_dependency"
  input: "agent_1/weight/read"
  device: "/job:worker"
  attr {
    key: "T"
    value {
      type: DT_FLOAT
    }
  }
  attr {
    key: "_output_shapes"
    value {
      list {
        shape {
          dim {
            size: -1
          }
          dim {
            size: 1000
          }
        }
      }
    }
  }
  attr {
    key: "transpose_a"
    value {
      b: false
    }
  }
  attr {
    key: "transpose_b"
    value {
      b: true
    }
  }
}
node {
  name: "optimizer/gradients/agent_1/MatMul_grad/MatMul_1"
  op: "MatMul"
  input: "task_1/output"
  input: "optimizer/gradients/agent_1/output_aka_y_grad/tuple/control_dependency"
  device: "/job:worker"
  attr {
    key: "T"
    value {
      type: DT_FLOAT
    }
  }
  attr {
    key: "_output_shapes"
    value {
      list {
        shape {
          dim {
            size: 1000
          }
          dim {
            size: 4
          }
        }
      }
    }
  }
  attr {
    key: "transpose_a"
    value {
      b: true
    }
  }
  attr {
    key: "transpose_b"
    value {
      b: false
    }
  }
}
node {
  name: "optimizer/gradients/agent_1/MatMul_grad/tuple/group_deps"
  op: "NoOp"
  input: "^optimizer/gradients/agent_1/MatMul_grad/MatMul"
  input: "^optimizer/gradients/agent_1/MatMul_grad/MatMul_1"
  device: "/job:worker"
}
node {
  name: "optimizer/gradients/agent_1/MatMul_grad/tuple/control_dependency"
  op: "Identity"
  input: "optimizer/gradients/agent_1/MatMul_grad/MatMul"
  input: "^optimizer/gradients/agent_1/MatMul_grad/tuple/group_deps"
  device: "/job:worker"
  attr {
    key: "T"
    value {
      type: DT_FLOAT
    }
  }
  attr {
    key: "_class"
    value {
      list {
        s: "loc:@optimizer/gradients/agent_1/MatMul_grad/MatMul"
      }
    }
  }
  attr {
    key: "_output_shapes"
    value {
      list {
        shape {
          dim {
            size: -1
          }
          dim {
            size: 1000
          }
        }
      }
    }
  }
}
node {
  name: "optimizer/gradients/agent_1/MatMul_grad/tuple/control_dependency_1"
  op: "Identity"
  input: "optimizer/gradients/agent_1/MatMul_grad/MatMul_1"
  input: "^optimizer/gradients/agent_1/MatMul_grad/tuple/group_deps"
  device: "/job:worker"
  attr {
    key: "T"
    value {
      type: DT_FLOAT
    }
  }
  attr {
    key: "_class"
    value {
      list {
        s: "loc:@optimizer/gradients/agent_1/MatMul_grad/MatMul_1"
      }
    }
  }
  attr {
    key: "_output_shapes"
    value {
      list {
        shape {
          dim {
            size: 1000
          }
          dim {
            size: 4
          }
        }
      }
    }
  }
}
node {
  name: "optimizer/gradients/task_1/output_grad/ReluGrad"
  op: "ReluGrad"
  input: "optimizer/gradients/agent_1/MatMul_grad/tuple/control_dependency"
  input: "task_1/output"
  device: "/job:worker"
  attr {
    key: "T"
    value {
      type: DT_FLOAT
    }
  }
  attr {
    key: "_output_shapes"
    value {
      list {
        shape {
          dim {
            size: -1
          }
          dim {
            size: 1000
          }
        }
      }
    }
  }
}
node {
  name: "optimizer/gradients/task_1/Add_grad/Shape"
  op: "Shape"
  input: "task_1/MatMul"
  device: "/job:worker"
  attr {
    key: "T"
    value {
      type: DT_FLOAT
    }
  }
  attr {
    key: "_output_shapes"
    value {
      list {
        shape {
          dim {
            size: 2
          }
        }
      }
    }
  }
}
node {
  name: "optimizer/gradients/task_1/Add_grad/Shape_1"
  op: "Shape"
  input: "task_1/bias/read"
  device: "/job:worker"
  attr {
    key: "T"
    value {
      type: DT_FLOAT
    }
  }
  attr {
    key: "_output_shapes"
    value {
      list {
        shape {
          dim {
            size: 1
          }
        }
      }
    }
  }
}
node {
  name: "optimizer/gradients/task_1/Add_grad/BroadcastGradientArgs"
  op: "BroadcastGradientArgs"
  input: "optimizer/gradients/task_1/Add_grad/Shape"
  input: "optimizer/gradients/task_1/Add_grad/Shape_1"
  device: "/job:worker"
  attr {
    key: "_output_shapes"
    value {
      list {
        shape {
          dim {
            size: -1
          }
        }
        shape {
          dim {
            size: -1
          }
        }
      }
    }
  }
}
node {
  name: "optimizer/gradients/task_1/Add_grad/Sum"
  op: "Sum"
  input: "optimizer/gradients/task_1/output_grad/ReluGrad"
  input: "optimizer/gradients/task_1/Add_grad/BroadcastGradientArgs"
  device: "/job:worker"
  attr {
    key: "T"
    value {
      type: DT_FLOAT
    }
  }
  attr {
    key: "_output_shapes"
    value {
      list {
        shape {
          unknown_rank: true
        }
      }
    }
  }
  attr {
    key: "keep_dims"
    value {
      b: false
    }
  }
}
node {
  name: "optimizer/gradients/task_1/Add_grad/Reshape"
  op: "Reshape"
  input: "optimizer/gradients/task_1/Add_grad/Sum"
  input: "optimizer/gradients/task_1/Add_grad/Shape"
  device: "/job:worker"
  attr {
    key: "T"
    value {
      type: DT_FLOAT
    }
  }
  attr {
    key: "_output_shapes"
    value {
      list {
        shape {
          dim {
            size: -1
          }
          dim {
            size: -1
          }
        }
      }
    }
  }
}
node {
  name: "optimizer/gradients/task_1/Add_grad/Sum_1"
  op: "Sum"
  input: "optimizer/gradients/task_1/output_grad/ReluGrad"
  input: "optimizer/gradients/task_1/Add_grad/BroadcastGradientArgs:1"
  device: "/job:worker"
  attr {
    key: "T"
    value {
      type: DT_FLOAT
    }
  }
  attr {
    key: "_output_shapes"
    value {
      list {
        shape {
          unknown_rank: true
        }
      }
    }
  }
  attr {
    key: "keep_dims"
    value {
      b: false
    }
  }
}
node {
  name: "optimizer/gradients/task_1/Add_grad/Reshape_1"
  op: "Reshape"
  input: "optimizer/gradients/task_1/Add_grad/Sum_1"
  input: "optimizer/gradients/task_1/Add_grad/Shape_1"
  device: "/job:worker"
  attr {
    key: "T"
    value {
      type: DT_FLOAT
    }
  }
  attr {
    key: "_output_shapes"
    value {
      list {
        shape {
          dim {
            size: 1000
          }
        }
      }
    }
  }
}
node {
  name: "optimizer/gradients/task_1/Add_grad/tuple/group_deps"
  op: "NoOp"
  input: "^optimizer/gradients/task_1/Add_grad/Reshape"
  input: "^optimizer/gradients/task_1/Add_grad/Reshape_1"
  device: "/job:worker"
}
node {
  name: "optimizer/gradients/task_1/Add_grad/tuple/control_dependency"
  op: "Identity"
  input: "optimizer/gradients/task_1/Add_grad/Reshape"
  input: "^optimizer/gradients/task_1/Add_grad/tuple/group_deps"
  device: "/job:worker"
  attr {
    key: "T"
    value {
      type: DT_FLOAT
    }
  }
  attr {
    key: "_class"
    value {
      list {
        s: "loc:@optimizer/gradients/task_1/Add_grad/Reshape"
      }
    }
  }
  attr {
    key: "_output_shapes"
    value {
      list {
        shape {
          dim {
            size: -1
          }
          dim {
            size: 1000
          }
        }
      }
    }
  }
}
node {
  name: "optimizer/gradients/task_1/Add_grad/tuple/control_dependency_1"
  op: "Identity"
  input: "optimizer/gradients/task_1/Add_grad/Reshape_1"
  input: "^optimizer/gradients/task_1/Add_grad/tuple/group_deps"
  device: "/job:worker"
  attr {
    key: "T"
    value {
      type: DT_FLOAT
    }
  }
  attr {
    key: "_class"
    value {
      list {
        s: "loc:@optimizer/gradients/task_1/Add_grad/Reshape_1"
      }
    }
  }
  attr {
    key: "_output_shapes"
    value {
      list {
        shape {
          dim {
            size: 1000
          }
        }
      }
    }
  }
}
node {
  name: "optimizer/gradients/task_1/MatMul_grad/MatMul"
  op: "MatMul"
  input: "optimizer/gradients/task_1/Add_grad/tuple/control_dependency"
  input: "task_1/weight/read"
  device: "/job:worker"
  attr {
    key: "T"
    value {
      type: DT_FLOAT
    }
  }
  attr {
    key: "_output_shapes"
    value {
      list {
        shape {
          dim {
            size: -1
          }
          dim {
            size: 1000
          }
        }
      }
    }
  }
  attr {
    key: "transpose_a"
    value {
      b: false
    }
  }
  attr {
    key: "transpose_b"
    value {
      b: true
    }
  }
}
node {
  name: "optimizer/gradients/task_1/MatMul_grad/MatMul_1"
  op: "MatMul"
  input: "world_1/output"
  input: "optimizer/gradients/task_1/Add_grad/tuple/control_dependency"
  device: "/job:worker"
  attr {
    key: "T"
    value {
      type: DT_FLOAT
    }
  }
  attr {
    key: "_output_shapes"
    value {
      list {
        shape {
          dim {
            size: 1000
          }
          dim {
            size: 1000
          }
        }
      }
    }
  }
  attr {
    key: "transpose_a"
    value {
      b: true
    }
  }
  attr {
    key: "transpose_b"
    value {
      b: false
    }
  }
}
node {
  name: "optimizer/gradients/task_1/MatMul_grad/tuple/group_deps"
  op: "NoOp"
  input: "^optimizer/gradients/task_1/MatMul_grad/MatMul"
  input: "^optimizer/gradients/task_1/MatMul_grad/MatMul_1"
  device: "/job:worker"
}
node {
  name: "optimizer/gradients/task_1/MatMul_grad/tuple/control_dependency"
  op: "Identity"
  input: "optimizer/gradients/task_1/MatMul_grad/MatMul"
  input: "^optimizer/gradients/task_1/MatMul_grad/tuple/group_deps"
  device: "/job:worker"
  attr {
    key: "T"
    value {
      type: DT_FLOAT
    }
  }
  attr {
    key: "_class"
    value {
      list {
        s: "loc:@optimizer/gradients/task_1/MatMul_grad/MatMul"
      }
    }
  }
  attr {
    key: "_output_shapes"
    value {
      list {
        shape {
          dim {
            size: -1
          }
          dim {
            size: 1000
          }
        }
      }
    }
  }
}
node {
  name: "optimizer/gradients/task_1/MatMul_grad/tuple/control_dependency_1"
  op: "Identity"
  input: "optimizer/gradients/task_1/MatMul_grad/MatMul_1"
  input: "^optimizer/gradients/task_1/MatMul_grad/tuple/group_deps"
  device: "/job:worker"
  attr {
    key: "T"
    value {
      type: DT_FLOAT
    }
  }
  attr {
    key: "_class"
    value {
      list {
        s: "loc:@optimizer/gradients/task_1/MatMul_grad/MatMul_1"
      }
    }
  }
  attr {
    key: "_output_shapes"
    value {
      list {
        shape {
          dim {
            size: 1000
          }
          dim {
            size: 1000
          }
        }
      }
    }
  }
}
node {
  name: "optimizer/gradients/world_1/output_grad/ReluGrad"
  op: "ReluGrad"
  input: "optimizer/gradients/task_1/MatMul_grad/tuple/control_dependency"
  input: "world_1/output"
  device: "/job:worker"
  attr {
    key: "T"
    value {
      type: DT_FLOAT
    }
  }
  attr {
    key: "_output_shapes"
    value {
      list {
        shape {
          dim {
            size: -1
          }
          dim {
            size: 1000
          }
        }
      }
    }
  }
}
node {
  name: "optimizer/gradients/world_1/Add_grad/Shape"
  op: "Shape"
  input: "world_1/MatMul"
  device: "/job:worker"
  attr {
    key: "T"
    value {
      type: DT_FLOAT
    }
  }
  attr {
    key: "_output_shapes"
    value {
      list {
        shape {
          dim {
            size: 2
          }
        }
      }
    }
  }
}
node {
  name: "optimizer/gradients/world_1/Add_grad/Shape_1"
  op: "Shape"
  input: "world_1/bias/read"
  device: "/job:worker"
  attr {
    key: "T"
    value {
      type: DT_FLOAT
    }
  }
  attr {
    key: "_output_shapes"
    value {
      list {
        shape {
          dim {
            size: 1
          }
        }
      }
    }
  }
}
node {
  name: "optimizer/gradients/world_1/Add_grad/BroadcastGradientArgs"
  op: "BroadcastGradientArgs"
  input: "optimizer/gradients/world_1/Add_grad/Shape"
  input: "optimizer/gradients/world_1/Add_grad/Shape_1"
  device: "/job:worker"
  attr {
    key: "_output_shapes"
    value {
      list {
        shape {
          dim {
            size: -1
          }
        }
        shape {
          dim {
            size: -1
          }
        }
      }
    }
  }
}
node {
  name: "optimizer/gradients/world_1/Add_grad/Sum"
  op: "Sum"
  input: "optimizer/gradients/world_1/output_grad/ReluGrad"
  input: "optimizer/gradients/world_1/Add_grad/BroadcastGradientArgs"
  device: "/job:worker"
  attr {
    key: "T"
    value {
      type: DT_FLOAT
    }
  }
  attr {
    key: "_output_shapes"
    value {
      list {
        shape {
          unknown_rank: true
        }
      }
    }
  }
  attr {
    key: "keep_dims"
    value {
      b: false
    }
  }
}
node {
  name: "optimizer/gradients/world_1/Add_grad/Reshape"
  op: "Reshape"
  input: "optimizer/gradients/world_1/Add_grad/Sum"
  input: "optimizer/gradients/world_1/Add_grad/Shape"
  device: "/job:worker"
  attr {
    key: "T"
    value {
      type: DT_FLOAT
    }
  }
  attr {
    key: "_output_shapes"
    value {
      list {
        shape {
          dim {
            size: -1
          }
          dim {
            size: -1
          }
        }
      }
    }
  }
}
node {
  name: "optimizer/gradients/world_1/Add_grad/Sum_1"
  op: "Sum"
  input: "optimizer/gradients/world_1/output_grad/ReluGrad"
  input: "optimizer/gradients/world_1/Add_grad/BroadcastGradientArgs:1"
  device: "/job:worker"
  attr {
    key: "T"
    value {
      type: DT_FLOAT
    }
  }
  attr {
    key: "_output_shapes"
    value {
      list {
        shape {
          unknown_rank: true
        }
      }
    }
  }
  attr {
    key: "keep_dims"
    value {
      b: false
    }
  }
}
node {
  name: "optimizer/gradients/world_1/Add_grad/Reshape_1"
  op: "Reshape"
  input: "optimizer/gradients/world_1/Add_grad/Sum_1"
  input: "optimizer/gradients/world_1/Add_grad/Shape_1"
  device: "/job:worker"
  attr {
    key: "T"
    value {
      type: DT_FLOAT
    }
  }
  attr {
    key: "_output_shapes"
    value {
      list {
        shape {
          dim {
            size: 1000
          }
        }
      }
    }
  }
}
node {
  name: "optimizer/gradients/world_1/Add_grad/tuple/group_deps"
  op: "NoOp"
  input: "^optimizer/gradients/world_1/Add_grad/Reshape"
  input: "^optimizer/gradients/world_1/Add_grad/Reshape_1"
  device: "/job:worker"
}
node {
  name: "optimizer/gradients/world_1/Add_grad/tuple/control_dependency"
  op: "Identity"
  input: "optimizer/gradients/world_1/Add_grad/Reshape"
  input: "^optimizer/gradients/world_1/Add_grad/tuple/group_deps"
  device: "/job:worker"
  attr {
    key: "T"
    value {
      type: DT_FLOAT
    }
  }
  attr {
    key: "_class"
    value {
      list {
        s: "loc:@optimizer/gradients/world_1/Add_grad/Reshape"
      }
    }
  }
  attr {
    key: "_output_shapes"
    value {
      list {
        shape {
          dim {
            size: -1
          }
          dim {
            size: 1000
          }
        }
      }
    }
  }
}
node {
  name: "optimizer/gradients/world_1/Add_grad/tuple/control_dependency_1"
  op: "Identity"
  input: "optimizer/gradients/world_1/Add_grad/Reshape_1"
  input: "^optimizer/gradients/world_1/Add_grad/tuple/group_deps"
  device: "/job:worker"
  attr {
    key: "T"
    value {
      type: DT_FLOAT
    }
  }
  attr {
    key: "_class"
    value {
      list {
        s: "loc:@optimizer/gradients/world_1/Add_grad/Reshape_1"
      }
    }
  }
  attr {
    key: "_output_shapes"
    value {
      list {
        shape {
          dim {
            size: 1000
          }
        }
      }
    }
  }
}
node {
  name: "optimizer/gradients/world_1/MatMul_grad/MatMul"
  op: "MatMul"
  input: "optimizer/gradients/world_1/Add_grad/tuple/control_dependency"
  input: "world_1/weight/read"
  device: "/job:worker"
  attr {
    key: "T"
    value {
      type: DT_FLOAT
    }
  }
  attr {
    key: "_output_shapes"
    value {
      list {
        shape {
          dim {
            size: -1
          }
          dim {
            size: 144
          }
        }
      }
    }
  }
  attr {
    key: "transpose_a"
    value {
      b: false
    }
  }
  attr {
    key: "transpose_b"
    value {
      b: true
    }
  }
}
node {
  name: "optimizer/gradients/world_1/MatMul_grad/MatMul_1"
  op: "MatMul"
  input: "placeholders/nn_x"
  input: "optimizer/gradients/world_1/Add_grad/tuple/control_dependency"
  device: "/job:worker"
  attr {
    key: "T"
    value {
      type: DT_FLOAT
    }
  }
  attr {
    key: "_output_shapes"
    value {
      list {
        shape {
          dim {
            size: 144
          }
          dim {
            size: 1000
          }
        }
      }
    }
  }
  attr {
    key: "transpose_a"
    value {
      b: true
    }
  }
  attr {
    key: "transpose_b"
    value {
      b: false
    }
  }
}
node {
  name: "optimizer/gradients/world_1/MatMul_grad/tuple/group_deps"
  op: "NoOp"
  input: "^optimizer/gradients/world_1/MatMul_grad/MatMul"
  input: "^optimizer/gradients/world_1/MatMul_grad/MatMul_1"
  device: "/job:worker"
}
node {
  name: "optimizer/gradients/world_1/MatMul_grad/tuple/control_dependency"
  op: "Identity"
  input: "optimizer/gradients/world_1/MatMul_grad/MatMul"
  input: "^optimizer/gradients/world_1/MatMul_grad/tuple/group_deps"
  device: "/job:worker"
  attr {
    key: "T"
    value {
      type: DT_FLOAT
    }
  }
  attr {
    key: "_class"
    value {
      list {
        s: "loc:@optimizer/gradients/world_1/MatMul_grad/MatMul"
      }
    }
  }
  attr {
    key: "_output_shapes"
    value {
      list {
        shape {
          dim {
            size: -1
          }
          dim {
            size: 144
          }
        }
      }
    }
  }
}
node {
  name: "optimizer/gradients/world_1/MatMul_grad/tuple/control_dependency_1"
  op: "Identity"
  input: "optimizer/gradients/world_1/MatMul_grad/MatMul_1"
  input: "^optimizer/gradients/world_1/MatMul_grad/tuple/group_deps"
  device: "/job:worker"
  attr {
    key: "T"
    value {
      type: DT_FLOAT
    }
  }
  attr {
    key: "_class"
    value {
      list {
        s: "loc:@optimizer/gradients/world_1/MatMul_grad/MatMul_1"
      }
    }
  }
  attr {
    key: "_output_shapes"
    value {
      list {
        shape {
          dim {
            size: 144
          }
          dim {
            size: 1000
          }
        }
      }
    }
  }
}
node {
  name: "optimizer/Const"
  op: "Const"
  device: "/job:worker"
  attr {
    key: "_output_shapes"
    value {
      list {
        shape {
          dim {
            size: 144
          }
          dim {
            size: 1000
          }
        }
      }
    }
  }
  attr {
    key: "dtype"
    value {
      type: DT_FLOAT
    }
  }
  attr {
    key: "value"
    value {
      tensor {
        dtype: DT_FLOAT
        tensor_shape {
          dim {
            size: 144
          }
          dim {
            size: 1000
          }
        }
        float_val: 1.0
      }
    }
  }
}
node {
  name: "optimizer/world_1/weight/RMSProp"
  op: "Variable"
  device: "/job:ps/task:0"
  attr {
    key: "_class"
    value {
      list {
        s: "loc:@world_1/weight"
      }
    }
  }
  attr {
    key: "_output_shapes"
    value {
      list {
        shape {
          dim {
            size: 144
          }
          dim {
            size: 1000
          }
        }
      }
    }
  }
  attr {
    key: "container"
    value {
      s: ""
    }
  }
  attr {
    key: "dtype"
    value {
      type: DT_FLOAT
    }
  }
  attr {
    key: "shape"
    value {
      shape {
        dim {
          size: 144
        }
        dim {
          size: 1000
        }
      }
    }
  }
  attr {
    key: "shared_name"
    value {
      s: ""
    }
  }
}
node {
  name: "optimizer/world_1/weight/RMSProp/Assign"
  op: "Assign"
  input: "optimizer/world_1/weight/RMSProp"
  input: "optimizer/Const"
  device: "/job:ps/task:0"
  attr {
    key: "T"
    value {
      type: DT_FLOAT
    }
  }
  attr {
    key: "_class"
    value {
      list {
        s: "loc:@world_1/weight"
      }
    }
  }
  attr {
    key: "_output_shapes"
    value {
      list {
        shape {
          dim {
            size: 144
          }
          dim {
            size: 1000
          }
        }
      }
    }
  }
  attr {
    key: "use_locking"
    value {
      b: true
    }
  }
  attr {
    key: "validate_shape"
    value {
      b: true
    }
  }
}
node {
  name: "optimizer/world_1/weight/RMSProp/read"
  op: "Identity"
  input: "optimizer/world_1/weight/RMSProp"
  device: "/job:ps/task:0"
  attr {
    key: "T"
    value {
      type: DT_FLOAT
    }
  }
  attr {
    key: "_class"
    value {
      list {
        s: "loc:@world_1/weight"
      }
    }
  }
  attr {
    key: "_output_shapes"
    value {
      list {
        shape {
          dim {
            size: 144
          }
          dim {
            size: 1000
          }
        }
      }
    }
  }
}
node {
  name: "optimizer/zeros"
  op: "Const"
  device: "/job:worker"
  attr {
    key: "_output_shapes"
    value {
      list {
        shape {
          dim {
            size: 144
          }
          dim {
            size: 1000
          }
        }
      }
    }
  }
  attr {
    key: "dtype"
    value {
      type: DT_FLOAT
    }
  }
  attr {
    key: "value"
    value {
      tensor {
        dtype: DT_FLOAT
        tensor_shape {
          dim {
            size: 144
          }
          dim {
            size: 1000
          }
        }
        float_val: 0.0
      }
    }
  }
}
node {
  name: "optimizer/world_1/weight/RMSProp_1"
  op: "Variable"
  device: "/job:ps/task:0"
  attr {
    key: "_class"
    value {
      list {
        s: "loc:@world_1/weight"
      }
    }
  }
  attr {
    key: "_output_shapes"
    value {
      list {
        shape {
          dim {
            size: 144
          }
          dim {
            size: 1000
          }
        }
      }
    }
  }
  attr {
    key: "container"
    value {
      s: ""
    }
  }
  attr {
    key: "dtype"
    value {
      type: DT_FLOAT
    }
  }
  attr {
    key: "shape"
    value {
      shape {
        dim {
          size: 144
        }
        dim {
          size: 1000
        }
      }
    }
  }
  attr {
    key: "shared_name"
    value {
      s: ""
    }
  }
}
node {
  name: "optimizer/world_1/weight/RMSProp_1/Assign"
  op: "Assign"
  input: "optimizer/world_1/weight/RMSProp_1"
  input: "optimizer/zeros"
  device: "/job:ps/task:0"
  attr {
    key: "T"
    value {
      type: DT_FLOAT
    }
  }
  attr {
    key: "_class"
    value {
      list {
        s: "loc:@world_1/weight"
      }
    }
  }
  attr {
    key: "_output_shapes"
    value {
      list {
        shape {
          dim {
            size: 144
          }
          dim {
            size: 1000
          }
        }
      }
    }
  }
  attr {
    key: "use_locking"
    value {
      b: true
    }
  }
  attr {
    key: "validate_shape"
    value {
      b: true
    }
  }
}
node {
  name: "optimizer/world_1/weight/RMSProp_1/read"
  op: "Identity"
  input: "optimizer/world_1/weight/RMSProp_1"
  device: "/job:ps/task:0"
  attr {
    key: "T"
    value {
      type: DT_FLOAT
    }
  }
  attr {
    key: "_class"
    value {
      list {
        s: "loc:@world_1/weight"
      }
    }
  }
  attr {
    key: "_output_shapes"
    value {
      list {
        shape {
          dim {
            size: 144
          }
          dim {
            size: 1000
          }
        }
      }
    }
  }
}
node {
  name: "optimizer/Const_1"
  op: "Const"
  device: "/job:worker"
  attr {
    key: "_output_shapes"
    value {
      list {
        shape {
          dim {
            size: 1000
          }
        }
      }
    }
  }
  attr {
    key: "dtype"
    value {
      type: DT_FLOAT
    }
  }
  attr {
    key: "value"
    value {
      tensor {
        dtype: DT_FLOAT
        tensor_shape {
          dim {
            size: 1000
          }
        }
        float_val: 1.0
      }
    }
  }
}
node {
  name: "optimizer/world_1/bias/RMSProp"
  op: "Variable"
  device: "/job:ps/task:1"
  attr {
    key: "_class"
    value {
      list {
        s: "loc:@world_1/bias"
      }
    }
  }
  attr {
    key: "_output_shapes"
    value {
      list {
        shape {
          dim {
            size: 1000
          }
        }
      }
    }
  }
  attr {
    key: "container"
    value {
      s: ""
    }
  }
  attr {
    key: "dtype"
    value {
      type: DT_FLOAT
    }
  }
  attr {
    key: "shape"
    value {
      shape {
        dim {
          size: 1000
        }
      }
    }
  }
  attr {
    key: "shared_name"
    value {
      s: ""
    }
  }
}
node {
  name: "optimizer/world_1/bias/RMSProp/Assign"
  op: "Assign"
  input: "optimizer/world_1/bias/RMSProp"
  input: "optimizer/Const_1"
  device: "/job:ps/task:1"
  attr {
    key: "T"
    value {
      type: DT_FLOAT
    }
  }
  attr {
    key: "_class"
    value {
      list {
        s: "loc:@world_1/bias"
      }
    }
  }
  attr {
    key: "_output_shapes"
    value {
      list {
        shape {
          dim {
            size: 1000
          }
        }
      }
    }
  }
  attr {
    key: "use_locking"
    value {
      b: true
    }
  }
  attr {
    key: "validate_shape"
    value {
      b: true
    }
  }
}
node {
  name: "optimizer/world_1/bias/RMSProp/read"
  op: "Identity"
  input: "optimizer/world_1/bias/RMSProp"
  device: "/job:ps/task:1"
  attr {
    key: "T"
    value {
      type: DT_FLOAT
    }
  }
  attr {
    key: "_class"
    value {
      list {
        s: "loc:@world_1/bias"
      }
    }
  }
  attr {
    key: "_output_shapes"
    value {
      list {
        shape {
          dim {
            size: 1000
          }
        }
      }
    }
  }
}
node {
  name: "optimizer/zeros_1"
  op: "Const"
  device: "/job:worker"
  attr {
    key: "_output_shapes"
    value {
      list {
        shape {
          dim {
            size: 1000
          }
        }
      }
    }
  }
  attr {
    key: "dtype"
    value {
      type: DT_FLOAT
    }
  }
  attr {
    key: "value"
    value {
      tensor {
        dtype: DT_FLOAT
        tensor_shape {
          dim {
            size: 1000
          }
        }
        float_val: 0.0
      }
    }
  }
}
node {
  name: "optimizer/world_1/bias/RMSProp_1"
  op: "Variable"
  device: "/job:ps/task:1"
  attr {
    key: "_class"
    value {
      list {
        s: "loc:@world_1/bias"
      }
    }
  }
  attr {
    key: "_output_shapes"
    value {
      list {
        shape {
          dim {
            size: 1000
          }
        }
      }
    }
  }
  attr {
    key: "container"
    value {
      s: ""
    }
  }
  attr {
    key: "dtype"
    value {
      type: DT_FLOAT
    }
  }
  attr {
    key: "shape"
    value {
      shape {
        dim {
          size: 1000
        }
      }
    }
  }
  attr {
    key: "shared_name"
    value {
      s: ""
    }
  }
}
node {
  name: "optimizer/world_1/bias/RMSProp_1/Assign"
  op: "Assign"
  input: "optimizer/world_1/bias/RMSProp_1"
  input: "optimizer/zeros_1"
  device: "/job:ps/task:1"
  attr {
    key: "T"
    value {
      type: DT_FLOAT
    }
  }
  attr {
    key: "_class"
    value {
      list {
        s: "loc:@world_1/bias"
      }
    }
  }
  attr {
    key: "_output_shapes"
    value {
      list {
        shape {
          dim {
            size: 1000
          }
        }
      }
    }
  }
  attr {
    key: "use_locking"
    value {
      b: true
    }
  }
  attr {
    key: "validate_shape"
    value {
      b: true
    }
  }
}
node {
  name: "optimizer/world_1/bias/RMSProp_1/read"
  op: "Identity"
  input: "optimizer/world_1/bias/RMSProp_1"
  device: "/job:ps/task:1"
  attr {
    key: "T"
    value {
      type: DT_FLOAT
    }
  }
  attr {
    key: "_class"
    value {
      list {
        s: "loc:@world_1/bias"
      }
    }
  }
  attr {
    key: "_output_shapes"
    value {
      list {
        shape {
          dim {
            size: 1000
          }
        }
      }
    }
  }
}
node {
  name: "optimizer/Const_2"
  op: "Const"
  device: "/job:worker"
  attr {
    key: "_output_shapes"
    value {
      list {
        shape {
          dim {
            size: 1000
          }
          dim {
            size: 1000
          }
        }
      }
    }
  }
  attr {
    key: "dtype"
    value {
      type: DT_FLOAT
    }
  }
  attr {
    key: "value"
    value {
      tensor {
        dtype: DT_FLOAT
        tensor_shape {
          dim {
            size: 1000
          }
          dim {
            size: 1000
          }
        }
        float_val: 1.0
      }
    }
  }
}
node {
  name: "optimizer/task_1/weight/RMSProp"
  op: "Variable"
  device: "/job:ps/task:2"
  attr {
    key: "_class"
    value {
      list {
        s: "loc:@task_1/weight"
      }
    }
  }
  attr {
    key: "_output_shapes"
    value {
      list {
        shape {
          dim {
            size: 1000
          }
          dim {
            size: 1000
          }
        }
      }
    }
  }
  attr {
    key: "container"
    value {
      s: ""
    }
  }
  attr {
    key: "dtype"
    value {
      type: DT_FLOAT
    }
  }
  attr {
    key: "shape"
    value {
      shape {
        dim {
          size: 1000
        }
        dim {
          size: 1000
        }
      }
    }
  }
  attr {
    key: "shared_name"
    value {
      s: ""
    }
  }
}
node {
  name: "optimizer/task_1/weight/RMSProp/Assign"
  op: "Assign"
  input: "optimizer/task_1/weight/RMSProp"
  input: "optimizer/Const_2"
  device: "/job:ps/task:2"
  attr {
    key: "T"
    value {
      type: DT_FLOAT
    }
  }
  attr {
    key: "_class"
    value {
      list {
        s: "loc:@task_1/weight"
      }
    }
  }
  attr {
    key: "_output_shapes"
    value {
      list {
        shape {
          dim {
            size: 1000
          }
          dim {
            size: 1000
          }
        }
      }
    }
  }
  attr {
    key: "use_locking"
    value {
      b: true
    }
  }
  attr {
    key: "validate_shape"
    value {
      b: true
    }
  }
}
node {
  name: "optimizer/task_1/weight/RMSProp/read"
  op: "Identity"
  input: "optimizer/task_1/weight/RMSProp"
  device: "/job:ps/task:2"
  attr {
    key: "T"
    value {
      type: DT_FLOAT
    }
  }
  attr {
    key: "_class"
    value {
      list {
        s: "loc:@task_1/weight"
      }
    }
  }
  attr {
    key: "_output_shapes"
    value {
      list {
        shape {
          dim {
            size: 1000
          }
          dim {
            size: 1000
          }
        }
      }
    }
  }
}
node {
  name: "optimizer/zeros_2"
  op: "Const"
  device: "/job:worker"
  attr {
    key: "_output_shapes"
    value {
      list {
        shape {
          dim {
            size: 1000
          }
          dim {
            size: 1000
          }
        }
      }
    }
  }
  attr {
    key: "dtype"
    value {
      type: DT_FLOAT
    }
  }
  attr {
    key: "value"
    value {
      tensor {
        dtype: DT_FLOAT
        tensor_shape {
          dim {
            size: 1000
          }
          dim {
            size: 1000
          }
        }
        float_val: 0.0
      }
    }
  }
}
node {
  name: "optimizer/task_1/weight/RMSProp_1"
  op: "Variable"
  device: "/job:ps/task:2"
  attr {
    key: "_class"
    value {
      list {
        s: "loc:@task_1/weight"
      }
    }
  }
  attr {
    key: "_output_shapes"
    value {
      list {
        shape {
          dim {
            size: 1000
          }
          dim {
            size: 1000
          }
        }
      }
    }
  }
  attr {
    key: "container"
    value {
      s: ""
    }
  }
  attr {
    key: "dtype"
    value {
      type: DT_FLOAT
    }
  }
  attr {
    key: "shape"
    value {
      shape {
        dim {
          size: 1000
        }
        dim {
          size: 1000
        }
      }
    }
  }
  attr {
    key: "shared_name"
    value {
      s: ""
    }
  }
}
node {
  name: "optimizer/task_1/weight/RMSProp_1/Assign"
  op: "Assign"
  input: "optimizer/task_1/weight/RMSProp_1"
  input: "optimizer/zeros_2"
  device: "/job:ps/task:2"
  attr {
    key: "T"
    value {
      type: DT_FLOAT
    }
  }
  attr {
    key: "_class"
    value {
      list {
        s: "loc:@task_1/weight"
      }
    }
  }
  attr {
    key: "_output_shapes"
    value {
      list {
        shape {
          dim {
            size: 1000
          }
          dim {
            size: 1000
          }
        }
      }
    }
  }
  attr {
    key: "use_locking"
    value {
      b: true
    }
  }
  attr {
    key: "validate_shape"
    value {
      b: true
    }
  }
}
node {
  name: "optimizer/task_1/weight/RMSProp_1/read"
  op: "Identity"
  input: "optimizer/task_1/weight/RMSProp_1"
  device: "/job:ps/task:2"
  attr {
    key: "T"
    value {
      type: DT_FLOAT
    }
  }
  attr {
    key: "_class"
    value {
      list {
        s: "loc:@task_1/weight"
      }
    }
  }
  attr {
    key: "_output_shapes"
    value {
      list {
        shape {
          dim {
            size: 1000
          }
          dim {
            size: 1000
          }
        }
      }
    }
  }
}
node {
  name: "optimizer/Const_3"
  op: "Const"
  device: "/job:worker"
  attr {
    key: "_output_shapes"
    value {
      list {
        shape {
          dim {
            size: 1000
          }
        }
      }
    }
  }
  attr {
    key: "dtype"
    value {
      type: DT_FLOAT
    }
  }
  attr {
    key: "value"
    value {
      tensor {
        dtype: DT_FLOAT
        tensor_shape {
          dim {
            size: 1000
          }
        }
        float_val: 1.0
      }
    }
  }
}
node {
  name: "optimizer/task_1/bias/RMSProp"
  op: "Variable"
  device: "/job:ps/task:3"
  attr {
    key: "_class"
    value {
      list {
        s: "loc:@task_1/bias"
      }
    }
  }
  attr {
    key: "_output_shapes"
    value {
      list {
        shape {
          dim {
            size: 1000
          }
        }
      }
    }
  }
  attr {
    key: "container"
    value {
      s: ""
    }
  }
  attr {
    key: "dtype"
    value {
      type: DT_FLOAT
    }
  }
  attr {
    key: "shape"
    value {
      shape {
        dim {
          size: 1000
        }
      }
    }
  }
  attr {
    key: "shared_name"
    value {
      s: ""
    }
  }
}
node {
  name: "optimizer/task_1/bias/RMSProp/Assign"
  op: "Assign"
  input: "optimizer/task_1/bias/RMSProp"
  input: "optimizer/Const_3"
  device: "/job:ps/task:3"
  attr {
    key: "T"
    value {
      type: DT_FLOAT
    }
  }
  attr {
    key: "_class"
    value {
      list {
        s: "loc:@task_1/bias"
      }
    }
  }
  attr {
    key: "_output_shapes"
    value {
      list {
        shape {
          dim {
            size: 1000
          }
        }
      }
    }
  }
  attr {
    key: "use_locking"
    value {
      b: true
    }
  }
  attr {
    key: "validate_shape"
    value {
      b: true
    }
  }
}
node {
  name: "optimizer/task_1/bias/RMSProp/read"
  op: "Identity"
  input: "optimizer/task_1/bias/RMSProp"
  device: "/job:ps/task:3"
  attr {
    key: "T"
    value {
      type: DT_FLOAT
    }
  }
  attr {
    key: "_class"
    value {
      list {
        s: "loc:@task_1/bias"
      }
    }
  }
  attr {
    key: "_output_shapes"
    value {
      list {
        shape {
          dim {
            size: 1000
          }
        }
      }
    }
  }
}
node {
  name: "optimizer/zeros_3"
  op: "Const"
  device: "/job:worker"
  attr {
    key: "_output_shapes"
    value {
      list {
        shape {
          dim {
            size: 1000
          }
        }
      }
    }
  }
  attr {
    key: "dtype"
    value {
      type: DT_FLOAT
    }
  }
  attr {
    key: "value"
    value {
      tensor {
        dtype: DT_FLOAT
        tensor_shape {
          dim {
            size: 1000
          }
        }
        float_val: 0.0
      }
    }
  }
}
node {
  name: "optimizer/task_1/bias/RMSProp_1"
  op: "Variable"
  device: "/job:ps/task:3"
  attr {
    key: "_class"
    value {
      list {
        s: "loc:@task_1/bias"
      }
    }
  }
  attr {
    key: "_output_shapes"
    value {
      list {
        shape {
          dim {
            size: 1000
          }
        }
      }
    }
  }
  attr {
    key: "container"
    value {
      s: ""
    }
  }
  attr {
    key: "dtype"
    value {
      type: DT_FLOAT
    }
  }
  attr {
    key: "shape"
    value {
      shape {
        dim {
          size: 1000
        }
      }
    }
  }
  attr {
    key: "shared_name"
    value {
      s: ""
    }
  }
}
node {
  name: "optimizer/task_1/bias/RMSProp_1/Assign"
  op: "Assign"
  input: "optimizer/task_1/bias/RMSProp_1"
  input: "optimizer/zeros_3"
  device: "/job:ps/task:3"
  attr {
    key: "T"
    value {
      type: DT_FLOAT
    }
  }
  attr {
    key: "_class"
    value {
      list {
        s: "loc:@task_1/bias"
      }
    }
  }
  attr {
    key: "_output_shapes"
    value {
      list {
        shape {
          dim {
            size: 1000
          }
        }
      }
    }
  }
  attr {
    key: "use_locking"
    value {
      b: true
    }
  }
  attr {
    key: "validate_shape"
    value {
      b: true
    }
  }
}
node {
  name: "optimizer/task_1/bias/RMSProp_1/read"
  op: "Identity"
  input: "optimizer/task_1/bias/RMSProp_1"
  device: "/job:ps/task:3"
  attr {
    key: "T"
    value {
      type: DT_FLOAT
    }
  }
  attr {
    key: "_class"
    value {
      list {
        s: "loc:@task_1/bias"
      }
    }
  }
  attr {
    key: "_output_shapes"
    value {
      list {
        shape {
          dim {
            size: 1000
          }
        }
      }
    }
  }
}
node {
  name: "optimizer/Const_4"
  op: "Const"
  device: "/job:worker"
  attr {
    key: "_output_shapes"
    value {
      list {
        shape {
          dim {
            size: 1000
          }
          dim {
            size: 4
          }
        }
      }
    }
  }
  attr {
    key: "dtype"
    value {
      type: DT_FLOAT
    }
  }
  attr {
    key: "value"
    value {
      tensor {
        dtype: DT_FLOAT
        tensor_shape {
          dim {
            size: 1000
          }
          dim {
            size: 4
          }
        }
        float_val: 1.0
      }
    }
  }
}
node {
  name: "optimizer/agent_1/weight/RMSProp"
  op: "Variable"
  device: "/job:ps/task:4"
  attr {
    key: "_class"
    value {
      list {
        s: "loc:@agent_1/weight"
      }
    }
  }
  attr {
    key: "_output_shapes"
    value {
      list {
        shape {
          dim {
            size: 1000
          }
          dim {
            size: 4
          }
        }
      }
    }
  }
  attr {
    key: "container"
    value {
      s: ""
    }
  }
  attr {
    key: "dtype"
    value {
      type: DT_FLOAT
    }
  }
  attr {
    key: "shape"
    value {
      shape {
        dim {
          size: 1000
        }
        dim {
          size: 4
        }
      }
    }
  }
  attr {
    key: "shared_name"
    value {
      s: ""
    }
  }
}
node {
  name: "optimizer/agent_1/weight/RMSProp/Assign"
  op: "Assign"
  input: "optimizer/agent_1/weight/RMSProp"
  input: "optimizer/Const_4"
  device: "/job:ps/task:4"
  attr {
    key: "T"
    value {
      type: DT_FLOAT
    }
  }
  attr {
    key: "_class"
    value {
      list {
        s: "loc:@agent_1/weight"
      }
    }
  }
  attr {
    key: "_output_shapes"
    value {
      list {
        shape {
          dim {
            size: 1000
          }
          dim {
            size: 4
          }
        }
      }
    }
  }
  attr {
    key: "use_locking"
    value {
      b: true
    }
  }
  attr {
    key: "validate_shape"
    value {
      b: true
    }
  }
}
node {
  name: "optimizer/agent_1/weight/RMSProp/read"
  op: "Identity"
  input: "optimizer/agent_1/weight/RMSProp"
  device: "/job:ps/task:4"
  attr {
    key: "T"
    value {
      type: DT_FLOAT
    }
  }
  attr {
    key: "_class"
    value {
      list {
        s: "loc:@agent_1/weight"
      }
    }
  }
  attr {
    key: "_output_shapes"
    value {
      list {
        shape {
          dim {
            size: 1000
          }
          dim {
            size: 4
          }
        }
      }
    }
  }
}
node {
  name: "optimizer/zeros_4"
  op: "Const"
  device: "/job:worker"
  attr {
    key: "_output_shapes"
    value {
      list {
        shape {
          dim {
            size: 1000
          }
          dim {
            size: 4
          }
        }
      }
    }
  }
  attr {
    key: "dtype"
    value {
      type: DT_FLOAT
    }
  }
  attr {
    key: "value"
    value {
      tensor {
        dtype: DT_FLOAT
        tensor_shape {
          dim {
            size: 1000
          }
          dim {
            size: 4
          }
        }
        float_val: 0.0
      }
    }
  }
}
node {
  name: "optimizer/agent_1/weight/RMSProp_1"
  op: "Variable"
  device: "/job:ps/task:4"
  attr {
    key: "_class"
    value {
      list {
        s: "loc:@agent_1/weight"
      }
    }
  }
  attr {
    key: "_output_shapes"
    value {
      list {
        shape {
          dim {
            size: 1000
          }
          dim {
            size: 4
          }
        }
      }
    }
  }
  attr {
    key: "container"
    value {
      s: ""
    }
  }
  attr {
    key: "dtype"
    value {
      type: DT_FLOAT
    }
  }
  attr {
    key: "shape"
    value {
      shape {
        dim {
          size: 1000
        }
        dim {
          size: 4
        }
      }
    }
  }
  attr {
    key: "shared_name"
    value {
      s: ""
    }
  }
}
node {
  name: "optimizer/agent_1/weight/RMSProp_1/Assign"
  op: "Assign"
  input: "optimizer/agent_1/weight/RMSProp_1"
  input: "optimizer/zeros_4"
  device: "/job:ps/task:4"
  attr {
    key: "T"
    value {
      type: DT_FLOAT
    }
  }
  attr {
    key: "_class"
    value {
      list {
        s: "loc:@agent_1/weight"
      }
    }
  }
  attr {
    key: "_output_shapes"
    value {
      list {
        shape {
          dim {
            size: 1000
          }
          dim {
            size: 4
          }
        }
      }
    }
  }
  attr {
    key: "use_locking"
    value {
      b: true
    }
  }
  attr {
    key: "validate_shape"
    value {
      b: true
    }
  }
}
node {
  name: "optimizer/agent_1/weight/RMSProp_1/read"
  op: "Identity"
  input: "optimizer/agent_1/weight/RMSProp_1"
  device: "/job:ps/task:4"
  attr {
    key: "T"
    value {
      type: DT_FLOAT
    }
  }
  attr {
    key: "_class"
    value {
      list {
        s: "loc:@agent_1/weight"
      }
    }
  }
  attr {
    key: "_output_shapes"
    value {
      list {
        shape {
          dim {
            size: 1000
          }
          dim {
            size: 4
          }
        }
      }
    }
  }
}
node {
  name: "optimizer/Const_5"
  op: "Const"
  device: "/job:worker"
  attr {
    key: "_output_shapes"
    value {
      list {
        shape {
          dim {
            size: 4
          }
        }
      }
    }
  }
  attr {
    key: "dtype"
    value {
      type: DT_FLOAT
    }
  }
  attr {
    key: "value"
    value {
      tensor {
        dtype: DT_FLOAT
        tensor_shape {
          dim {
            size: 4
          }
        }
        float_val: 1.0
      }
    }
  }
}
node {
  name: "optimizer/agent_1/bias/RMSProp"
  op: "Variable"
  device: "/job:ps/task:5"
  attr {
    key: "_class"
    value {
      list {
        s: "loc:@agent_1/bias"
      }
    }
  }
  attr {
    key: "_output_shapes"
    value {
      list {
        shape {
          dim {
            size: 4
          }
        }
      }
    }
  }
  attr {
    key: "container"
    value {
      s: ""
    }
  }
  attr {
    key: "dtype"
    value {
      type: DT_FLOAT
    }
  }
  attr {
    key: "shape"
    value {
      shape {
        dim {
          size: 4
        }
      }
    }
  }
  attr {
    key: "shared_name"
    value {
      s: ""
    }
  }
}
node {
  name: "optimizer/agent_1/bias/RMSProp/Assign"
  op: "Assign"
  input: "optimizer/agent_1/bias/RMSProp"
  input: "optimizer/Const_5"
  device: "/job:ps/task:5"
  attr {
    key: "T"
    value {
      type: DT_FLOAT
    }
  }
  attr {
    key: "_class"
    value {
      list {
        s: "loc:@agent_1/bias"
      }
    }
  }
  attr {
    key: "_output_shapes"
    value {
      list {
        shape {
          dim {
            size: 4
          }
        }
      }
    }
  }
  attr {
    key: "use_locking"
    value {
      b: true
    }
  }
  attr {
    key: "validate_shape"
    value {
      b: true
    }
  }
}
node {
  name: "optimizer/agent_1/bias/RMSProp/read"
  op: "Identity"
  input: "optimizer/agent_1/bias/RMSProp"
  device: "/job:ps/task:5"
  attr {
    key: "T"
    value {
      type: DT_FLOAT
    }
  }
  attr {
    key: "_class"
    value {
      list {
        s: "loc:@agent_1/bias"
      }
    }
  }
  attr {
    key: "_output_shapes"
    value {
      list {
        shape {
          dim {
            size: 4
          }
        }
      }
    }
  }
}
node {
  name: "optimizer/zeros_5"
  op: "Const"
  device: "/job:worker"
  attr {
    key: "_output_shapes"
    value {
      list {
        shape {
          dim {
            size: 4
          }
        }
      }
    }
  }
  attr {
    key: "dtype"
    value {
      type: DT_FLOAT
    }
  }
  attr {
    key: "value"
    value {
      tensor {
        dtype: DT_FLOAT
        tensor_shape {
          dim {
            size: 4
          }
        }
        float_val: 0.0
      }
    }
  }
}
node {
  name: "optimizer/agent_1/bias/RMSProp_1"
  op: "Variable"
  device: "/job:ps/task:5"
  attr {
    key: "_class"
    value {
      list {
        s: "loc:@agent_1/bias"
      }
    }
  }
  attr {
    key: "_output_shapes"
    value {
      list {
        shape {
          dim {
            size: 4
          }
        }
      }
    }
  }
  attr {
    key: "container"
    value {
      s: ""
    }
  }
  attr {
    key: "dtype"
    value {
      type: DT_FLOAT
    }
  }
  attr {
    key: "shape"
    value {
      shape {
        dim {
          size: 4
        }
      }
    }
  }
  attr {
    key: "shared_name"
    value {
      s: ""
    }
  }
}
node {
  name: "optimizer/agent_1/bias/RMSProp_1/Assign"
  op: "Assign"
  input: "optimizer/agent_1/bias/RMSProp_1"
  input: "optimizer/zeros_5"
  device: "/job:ps/task:5"
  attr {
    key: "T"
    value {
      type: DT_FLOAT
    }
  }
  attr {
    key: "_class"
    value {
      list {
        s: "loc:@agent_1/bias"
      }
    }
  }
  attr {
    key: "_output_shapes"
    value {
      list {
        shape {
          dim {
            size: 4
          }
        }
      }
    }
  }
  attr {
    key: "use_locking"
    value {
      b: true
    }
  }
  attr {
    key: "validate_shape"
    value {
      b: true
    }
  }
}
node {
  name: "optimizer/agent_1/bias/RMSProp_1/read"
  op: "Identity"
  input: "optimizer/agent_1/bias/RMSProp_1"
  device: "/job:ps/task:5"
  attr {
    key: "T"
    value {
      type: DT_FLOAT
    }
  }
  attr {
    key: "_class"
    value {
      list {
        s: "loc:@agent_1/bias"
      }
    }
  }
  attr {
    key: "_output_shapes"
    value {
      list {
        shape {
          dim {
            size: 4
          }
        }
      }
    }
  }
}
node {
  name: "optimizer/RMSProp/learning_rate"
  op: "Const"
  device: "/job:worker"
  attr {
    key: "_output_shapes"
    value {
      list {
        shape {
        }
      }
    }
  }
  attr {
    key: "dtype"
    value {
      type: DT_FLOAT
    }
  }
  attr {
    key: "value"
    value {
      tensor {
        dtype: DT_FLOAT
        tensor_shape {
        }
        float_val: 9.99999974738e-05
      }
    }
  }
}
node {
  name: "optimizer/RMSProp/decay"
  op: "Const"
  device: "/job:worker"
  attr {
    key: "_output_shapes"
    value {
      list {
        shape {
        }
      }
    }
  }
  attr {
    key: "dtype"
    value {
      type: DT_FLOAT
    }
  }
  attr {
    key: "value"
    value {
      tensor {
        dtype: DT_FLOAT
        tensor_shape {
        }
        float_val: 0.990000009537
      }
    }
  }
}
node {
  name: "optimizer/RMSProp/momentum"
  op: "Const"
  device: "/job:worker"
  attr {
    key: "_output_shapes"
    value {
      list {
        shape {
        }
      }
    }
  }
  attr {
    key: "dtype"
    value {
      type: DT_FLOAT
    }
  }
  attr {
    key: "value"
    value {
      tensor {
        dtype: DT_FLOAT
        tensor_shape {
        }
        float_val: 0.0
      }
    }
  }
}
node {
  name: "optimizer/RMSProp/epsilon"
  op: "Const"
  device: "/job:worker"
  attr {
    key: "_output_shapes"
    value {
      list {
        shape {
        }
      }
    }
  }
  attr {
    key: "dtype"
    value {
      type: DT_FLOAT
    }
  }
  attr {
    key: "value"
    value {
      tensor {
        dtype: DT_FLOAT
        tensor_shape {
        }
        float_val: 9.99999997475e-07
      }
    }
  }
}
node {
  name: "optimizer/RMSProp/update_world_1/weight/ApplyRMSProp"
  op: "ApplyRMSProp"
  input: "world_1/weight"
  input: "optimizer/world_1/weight/RMSProp"
  input: "optimizer/world_1/weight/RMSProp_1"
  input: "optimizer/RMSProp/learning_rate"
  input: "optimizer/RMSProp/decay"
  input: "optimizer/RMSProp/momentum"
  input: "optimizer/RMSProp/epsilon"
  input: "optimizer/gradients/world_1/MatMul_grad/tuple/control_dependency_1"
  device: "/job:ps/task:0"
  attr {
    key: "T"
    value {
      type: DT_FLOAT
    }
  }
  attr {
    key: "_class"
    value {
      list {
        s: "loc:@world_1/weight"
      }
    }
  }
  attr {
    key: "_output_shapes"
    value {
      list {
        shape {
          dim {
            size: 144
          }
          dim {
            size: 1000
          }
        }
      }
    }
  }
  attr {
    key: "use_locking"
    value {
      b: false
    }
  }
}
node {
  name: "optimizer/RMSProp/update_world_1/bias/ApplyRMSProp"
  op: "ApplyRMSProp"
  input: "world_1/bias"
  input: "optimizer/world_1/bias/RMSProp"
  input: "optimizer/world_1/bias/RMSProp_1"
  input: "optimizer/RMSProp/learning_rate"
  input: "optimizer/RMSProp/decay"
  input: "optimizer/RMSProp/momentum"
  input: "optimizer/RMSProp/epsilon"
  input: "optimizer/gradients/world_1/Add_grad/tuple/control_dependency_1"
  device: "/job:ps/task:1"
  attr {
    key: "T"
    value {
      type: DT_FLOAT
    }
  }
  attr {
    key: "_class"
    value {
      list {
        s: "loc:@world_1/bias"
      }
    }
  }
  attr {
    key: "_output_shapes"
    value {
      list {
        shape {
          dim {
            size: 1000
          }
        }
      }
    }
  }
  attr {
    key: "use_locking"
    value {
      b: false
    }
  }
}
node {
  name: "optimizer/RMSProp/update_task_1/weight/ApplyRMSProp"
  op: "ApplyRMSProp"
  input: "task_1/weight"
  input: "optimizer/task_1/weight/RMSProp"
  input: "optimizer/task_1/weight/RMSProp_1"
  input: "optimizer/RMSProp/learning_rate"
  input: "optimizer/RMSProp/decay"
  input: "optimizer/RMSProp/momentum"
  input: "optimizer/RMSProp/epsilon"
  input: "optimizer/gradients/task_1/MatMul_grad/tuple/control_dependency_1"
  device: "/job:ps/task:2"
  attr {
    key: "T"
    value {
      type: DT_FLOAT
    }
  }
  attr {
    key: "_class"
    value {
      list {
        s: "loc:@task_1/weight"
      }
    }
  }
  attr {
    key: "_output_shapes"
    value {
      list {
        shape {
          dim {
            size: 1000
          }
          dim {
            size: 1000
          }
        }
      }
    }
  }
  attr {
    key: "use_locking"
    value {
      b: false
    }
  }
}
node {
  name: "optimizer/RMSProp/update_task_1/bias/ApplyRMSProp"
  op: "ApplyRMSProp"
  input: "task_1/bias"
  input: "optimizer/task_1/bias/RMSProp"
  input: "optimizer/task_1/bias/RMSProp_1"
  input: "optimizer/RMSProp/learning_rate"
  input: "optimizer/RMSProp/decay"
  input: "optimizer/RMSProp/momentum"
  input: "optimizer/RMSProp/epsilon"
  input: "optimizer/gradients/task_1/Add_grad/tuple/control_dependency_1"
  device: "/job:ps/task:3"
  attr {
    key: "T"
    value {
      type: DT_FLOAT
    }
  }
  attr {
    key: "_class"
    value {
      list {
        s: "loc:@task_1/bias"
      }
    }
  }
  attr {
    key: "_output_shapes"
    value {
      list {
        shape {
          dim {
            size: 1000
          }
        }
      }
    }
  }
  attr {
    key: "use_locking"
    value {
      b: false
    }
  }
}
node {
  name: "optimizer/RMSProp/update_agent_1/weight/ApplyRMSProp"
  op: "ApplyRMSProp"
  input: "agent_1/weight"
  input: "optimizer/agent_1/weight/RMSProp"
  input: "optimizer/agent_1/weight/RMSProp_1"
  input: "optimizer/RMSProp/learning_rate"
  input: "optimizer/RMSProp/decay"
  input: "optimizer/RMSProp/momentum"
  input: "optimizer/RMSProp/epsilon"
  input: "optimizer/gradients/agent_1/MatMul_grad/tuple/control_dependency_1"
  device: "/job:ps/task:4"
  attr {
    key: "T"
    value {
      type: DT_FLOAT
    }
  }
  attr {
    key: "_class"
    value {
      list {
        s: "loc:@agent_1/weight"
      }
    }
  }
  attr {
    key: "_output_shapes"
    value {
      list {
        shape {
          dim {
            size: 1000
          }
          dim {
            size: 4
          }
        }
      }
    }
  }
  attr {
    key: "use_locking"
    value {
      b: false
    }
  }
}
node {
  name: "optimizer/RMSProp/update_agent_1/bias/ApplyRMSProp"
  op: "ApplyRMSProp"
  input: "agent_1/bias"
  input: "optimizer/agent_1/bias/RMSProp"
  input: "optimizer/agent_1/bias/RMSProp_1"
  input: "optimizer/RMSProp/learning_rate"
  input: "optimizer/RMSProp/decay"
  input: "optimizer/RMSProp/momentum"
  input: "optimizer/RMSProp/epsilon"
  input: "optimizer/gradients/agent_1/output_aka_y_grad/tuple/control_dependency_1"
  device: "/job:ps/task:5"
  attr {
    key: "T"
    value {
      type: DT_FLOAT
    }
  }
  attr {
    key: "_class"
    value {
      list {
        s: "loc:@agent_1/bias"
      }
    }
  }
  attr {
    key: "_output_shapes"
    value {
      list {
        shape {
          dim {
            size: 4
          }
        }
      }
    }
  }
  attr {
    key: "use_locking"
    value {
      b: false
    }
  }
}
node {
  name: "optimizer/RMSProp/NoOp"
  op: "NoOp"
  input: "^optimizer/RMSProp/update_world_1/weight/ApplyRMSProp"
  device: "/job:ps/task:0"
}
node {
  name: "optimizer/RMSProp/NoOp_1"
  op: "NoOp"
  input: "^optimizer/RMSProp/update_world_1/bias/ApplyRMSProp"
  device: "/job:ps/task:1"
}
node {
  name: "optimizer/RMSProp/NoOp_2"
  op: "NoOp"
  input: "^optimizer/RMSProp/update_task_1/weight/ApplyRMSProp"
  device: "/job:ps/task:2"
}
node {
  name: "optimizer/RMSProp/NoOp_3"
  op: "NoOp"
  input: "^optimizer/RMSProp/update_task_1/bias/ApplyRMSProp"
  device: "/job:ps/task:3"
}
node {
  name: "optimizer/RMSProp/NoOp_4"
  op: "NoOp"
  input: "^optimizer/RMSProp/update_agent_1/weight/ApplyRMSProp"
  device: "/job:ps/task:4"
}
node {
  name: "optimizer/RMSProp/NoOp_5"
  op: "NoOp"
  input: "^optimizer/RMSProp/update_agent_1/bias/ApplyRMSProp"
  device: "/job:ps/task:5"
}
node {
  name: "optimizer/RMSProp"
  op: "NoOp"
  input: "^optimizer/RMSProp/NoOp"
  input: "^optimizer/RMSProp/NoOp_1"
  input: "^optimizer/RMSProp/NoOp_2"
  input: "^optimizer/RMSProp/NoOp_3"
  input: "^optimizer/RMSProp/NoOp_4"
  input: "^optimizer/RMSProp/NoOp_5"
  device: "/job:worker"
}
node {
  name: "global_vars/Variable/initial_value"
  op: "Const"
  device: "/job:worker"
  attr {
    key: "_output_shapes"
    value {
      list {
        shape {
        }
      }
    }
  }
  attr {
    key: "dtype"
    value {
      type: DT_INT32
    }
  }
  attr {
    key: "value"
    value {
      tensor {
        dtype: DT_INT32
        tensor_shape {
        }
        int_val: 0
      }
    }
  }
}
node {
  name: "global_vars/Variable"
  op: "Variable"
  device: "/job:ps/task:6"
  attr {
    key: "_output_shapes"
    value {
      list {
        shape {
        }
      }
    }
  }
  attr {
    key: "container"
    value {
      s: ""
    }
  }
  attr {
    key: "dtype"
    value {
      type: DT_INT32
    }
  }
  attr {
    key: "shape"
    value {
      shape {
      }
    }
  }
  attr {
    key: "shared_name"
    value {
      s: ""
    }
  }
}
node {
  name: "global_vars/Variable/Assign"
  op: "Assign"
  input: "global_vars/Variable"
  input: "global_vars/Variable/initial_value"
  device: "/job:ps/task:6"
  attr {
    key: "T"
    value {
      type: DT_INT32
    }
  }
  attr {
    key: "_class"
    value {
      list {
        s: "loc:@global_vars/Variable"
      }
    }
  }
  attr {
    key: "_output_shapes"
    value {
      list {
        shape {
        }
      }
    }
  }
  attr {
    key: "use_locking"
    value {
      b: true
    }
  }
  attr {
    key: "validate_shape"
    value {
      b: true
    }
  }
}
node {
  name: "global_vars/Variable/read"
  op: "Identity"
  input: "global_vars/Variable"
  device: "/job:ps/task:6"
  attr {
    key: "T"
    value {
      type: DT_INT32
    }
  }
  attr {
    key: "_class"
    value {
      list {
        s: "loc:@global_vars/Variable"
      }
    }
  }
  attr {
    key: "_output_shapes"
    value {
      list {
        shape {
        }
      }
    }
  }
}
node {
  name: "save/Const"
  op: "Const"
  device: "/job:worker"
  attr {
    key: "_output_shapes"
    value {
      list {
        shape {
        }
      }
    }
  }
  attr {
    key: "dtype"
    value {
      type: DT_STRING
    }
  }
  attr {
    key: "value"
    value {
      tensor {
        dtype: DT_STRING
        tensor_shape {
        }
        string_val: "model"
      }
    }
  }
}
node {
  name: "save/save/tensor_names"
  op: "Const"
  device: "/job:worker"
  attr {
    key: "_output_shapes"
    value {
      list {
        shape {
          dim {
            size: 19
          }
        }
      }
    }
  }
  attr {
    key: "dtype"
    value {
      type: DT_STRING
    }
  }
  attr {
    key: "value"
    value {
      tensor {
        dtype: DT_STRING
        tensor_shape {
          dim {
            size: 19
          }
        }
        string_val: "agent_1/bias"
        string_val: "agent_1/weight"
        string_val: "global_vars/Variable"
        string_val: "optimizer/agent_1/bias/RMSProp"
        string_val: "optimizer/agent_1/bias/RMSProp_1"
        string_val: "optimizer/agent_1/weight/RMSProp"
        string_val: "optimizer/agent_1/weight/RMSProp_1"
        string_val: "optimizer/task_1/bias/RMSProp"
        string_val: "optimizer/task_1/bias/RMSProp_1"
        string_val: "optimizer/task_1/weight/RMSProp"
        string_val: "optimizer/task_1/weight/RMSProp_1"
        string_val: "optimizer/world_1/bias/RMSProp"
        string_val: "optimizer/world_1/bias/RMSProp_1"
        string_val: "optimizer/world_1/weight/RMSProp"
        string_val: "optimizer/world_1/weight/RMSProp_1"
        string_val: "task_1/bias"
        string_val: "task_1/weight"
        string_val: "world_1/bias"
        string_val: "world_1/weight"
      }
    }
  }
}
node {
  name: "save/save/shapes_and_slices"
  op: "Const"
  device: "/job:worker"
  attr {
    key: "_output_shapes"
    value {
      list {
        shape {
          dim {
            size: 19
          }
        }
      }
    }
  }
  attr {
    key: "dtype"
    value {
      type: DT_STRING
    }
  }
  attr {
    key: "value"
    value {
      tensor {
        dtype: DT_STRING
        tensor_shape {
          dim {
            size: 19
          }
        }
        string_val: ""
        string_val: ""
        string_val: ""
        string_val: ""
        string_val: ""
        string_val: ""
        string_val: ""
        string_val: ""
        string_val: ""
        string_val: ""
        string_val: ""
        string_val: ""
        string_val: ""
        string_val: ""
        string_val: ""
        string_val: ""
        string_val: ""
        string_val: ""
        string_val: ""
      }
    }
  }
}
node {
  name: "save/save"
  op: "SaveSlices"
  input: "save/Const"
  input: "save/save/tensor_names"
  input: "save/save/shapes_and_slices"
  input: "agent_1/bias"
  input: "agent_1/weight"
  input: "global_vars/Variable"
  input: "optimizer/agent_1/bias/RMSProp"
  input: "optimizer/agent_1/bias/RMSProp_1"
  input: "optimizer/agent_1/weight/RMSProp"
  input: "optimizer/agent_1/weight/RMSProp_1"
  input: "optimizer/task_1/bias/RMSProp"
  input: "optimizer/task_1/bias/RMSProp_1"
  input: "optimizer/task_1/weight/RMSProp"
  input: "optimizer/task_1/weight/RMSProp_1"
  input: "optimizer/world_1/bias/RMSProp"
  input: "optimizer/world_1/bias/RMSProp_1"
  input: "optimizer/world_1/weight/RMSProp"
  input: "optimizer/world_1/weight/RMSProp_1"
  input: "task_1/bias"
  input: "task_1/weight"
  input: "world_1/bias"
  input: "world_1/weight"
  device: "/job:worker"
  attr {
    key: "T"
    value {
      list {
        type: DT_FLOAT
        type: DT_FLOAT
        type: DT_INT32
        type: DT_FLOAT
        type: DT_FLOAT
        type: DT_FLOAT
        type: DT_FLOAT
        type: DT_FLOAT
        type: DT_FLOAT
        type: DT_FLOAT
        type: DT_FLOAT
        type: DT_FLOAT
        type: DT_FLOAT
        type: DT_FLOAT
        type: DT_FLOAT
        type: DT_FLOAT
        type: DT_FLOAT
        type: DT_FLOAT
        type: DT_FLOAT
      }
    }
  }
}
node {
  name: "save/control_dependency"
  op: "Identity"
  input: "save/Const"
  input: "^save/save"
  device: "/job:worker"
  attr {
    key: "T"
    value {
      type: DT_STRING
    }
  }
  attr {
    key: "_class"
    value {
      list {
        s: "loc:@save/Const"
      }
    }
  }
  attr {
    key: "_output_shapes"
    value {
      list {
        shape {
        }
      }
    }
  }
}
node {
  name: "save/restore_slice/tensor_name"
  op: "Const"
  device: "/job:ps/task:5/device:CPU:0"
  attr {
    key: "_output_shapes"
    value {
      list {
        shape {
        }
      }
    }
  }
  attr {
    key: "dtype"
    value {
      type: DT_STRING
    }
  }
  attr {
    key: "value"
    value {
      tensor {
        dtype: DT_STRING
        tensor_shape {
        }
        string_val: "agent_1/bias"
      }
    }
  }
}
node {
  name: "save/restore_slice/shape_and_slice"
  op: "Const"
  device: "/job:ps/task:5/device:CPU:0"
  attr {
    key: "_output_shapes"
    value {
      list {
        shape {
        }
      }
    }
  }
  attr {
    key: "dtype"
    value {
      type: DT_STRING
    }
  }
  attr {
    key: "value"
    value {
      tensor {
        dtype: DT_STRING
        tensor_shape {
        }
        string_val: ""
      }
    }
  }
}
node {
  name: "save/restore_slice"
  op: "RestoreSlice"
  input: "save/Const"
  input: "save/restore_slice/tensor_name"
  input: "save/restore_slice/shape_and_slice"
  device: "/job:ps/task:5/device:CPU:0"
  attr {
    key: "_output_shapes"
    value {
      list {
        shape {
          unknown_rank: true
        }
      }
    }
  }
  attr {
    key: "dt"
    value {
      type: DT_FLOAT
    }
  }
  attr {
    key: "preferred_shard"
    value {
      i: -1
    }
  }
}
node {
  name: "save/Assign"
  op: "Assign"
  input: "agent_1/bias"
  input: "save/restore_slice"
  device: "/job:ps/task:5"
  attr {
    key: "T"
    value {
      type: DT_FLOAT
    }
  }
  attr {
    key: "_class"
    value {
      list {
        s: "loc:@agent_1/bias"
      }
    }
  }
  attr {
    key: "_output_shapes"
    value {
      list {
        shape {
          dim {
            size: 4
          }
        }
      }
    }
  }
  attr {
    key: "use_locking"
    value {
      b: true
    }
  }
  attr {
    key: "validate_shape"
    value {
      b: true
    }
  }
}
node {
  name: "save/restore_slice_1/tensor_name"
  op: "Const"
  device: "/job:ps/task:4/device:CPU:0"
  attr {
    key: "_output_shapes"
    value {
      list {
        shape {
        }
      }
    }
  }
  attr {
    key: "dtype"
    value {
      type: DT_STRING
    }
  }
  attr {
    key: "value"
    value {
      tensor {
        dtype: DT_STRING
        tensor_shape {
        }
        string_val: "agent_1/weight"
      }
    }
  }
}
node {
  name: "save/restore_slice_1/shape_and_slice"
  op: "Const"
  device: "/job:ps/task:4/device:CPU:0"
  attr {
    key: "_output_shapes"
    value {
      list {
        shape {
        }
      }
    }
  }
  attr {
    key: "dtype"
    value {
      type: DT_STRING
    }
  }
  attr {
    key: "value"
    value {
      tensor {
        dtype: DT_STRING
        tensor_shape {
        }
        string_val: ""
      }
    }
  }
}
node {
  name: "save/restore_slice_1"
  op: "RestoreSlice"
  input: "save/Const"
  input: "save/restore_slice_1/tensor_name"
  input: "save/restore_slice_1/shape_and_slice"
  device: "/job:ps/task:4/device:CPU:0"
  attr {
    key: "_output_shapes"
    value {
      list {
        shape {
          unknown_rank: true
        }
      }
    }
  }
  attr {
    key: "dt"
    value {
      type: DT_FLOAT
    }
  }
  attr {
    key: "preferred_shard"
    value {
      i: -1
    }
  }
}
node {
  name: "save/Assign_1"
  op: "Assign"
  input: "agent_1/weight"
  input: "save/restore_slice_1"
  device: "/job:ps/task:4"
  attr {
    key: "T"
    value {
      type: DT_FLOAT
    }
  }
  attr {
    key: "_class"
    value {
      list {
        s: "loc:@agent_1/weight"
      }
    }
  }
  attr {
    key: "_output_shapes"
    value {
      list {
        shape {
          dim {
            size: 1000
          }
          dim {
            size: 4
          }
        }
      }
    }
  }
  attr {
    key: "use_locking"
    value {
      b: true
    }
  }
  attr {
    key: "validate_shape"
    value {
      b: true
    }
  }
}
node {
  name: "save/restore_slice_2/tensor_name"
  op: "Const"
  device: "/job:ps/task:6/device:CPU:0"
  attr {
    key: "_output_shapes"
    value {
      list {
        shape {
        }
      }
    }
  }
  attr {
    key: "dtype"
    value {
      type: DT_STRING
    }
  }
  attr {
    key: "value"
    value {
      tensor {
        dtype: DT_STRING
        tensor_shape {
        }
        string_val: "global_vars/Variable"
      }
    }
  }
}
node {
  name: "save/restore_slice_2/shape_and_slice"
  op: "Const"
  device: "/job:ps/task:6/device:CPU:0"
  attr {
    key: "_output_shapes"
    value {
      list {
        shape {
        }
      }
    }
  }
  attr {
    key: "dtype"
    value {
      type: DT_STRING
    }
  }
  attr {
    key: "value"
    value {
      tensor {
        dtype: DT_STRING
        tensor_shape {
        }
        string_val: ""
      }
    }
  }
}
node {
  name: "save/restore_slice_2"
  op: "RestoreSlice"
  input: "save/Const"
  input: "save/restore_slice_2/tensor_name"
  input: "save/restore_slice_2/shape_and_slice"
  device: "/job:ps/task:6/device:CPU:0"
  attr {
    key: "_output_shapes"
    value {
      list {
        shape {
          unknown_rank: true
        }
      }
    }
  }
  attr {
    key: "dt"
    value {
      type: DT_INT32
    }
  }
  attr {
    key: "preferred_shard"
    value {
      i: -1
    }
  }
}
node {
  name: "save/Assign_2"
  op: "Assign"
  input: "global_vars/Variable"
  input: "save/restore_slice_2"
  device: "/job:ps/task:6"
  attr {
    key: "T"
    value {
      type: DT_INT32
    }
  }
  attr {
    key: "_class"
    value {
      list {
        s: "loc:@global_vars/Variable"
      }
    }
  }
  attr {
    key: "_output_shapes"
    value {
      list {
        shape {
        }
      }
    }
  }
  attr {
    key: "use_locking"
    value {
      b: true
    }
  }
  attr {
    key: "validate_shape"
    value {
      b: true
    }
  }
}
node {
  name: "save/restore_slice_3/tensor_name"
  op: "Const"
  device: "/job:ps/task:5/device:CPU:0"
  attr {
    key: "_output_shapes"
    value {
      list {
        shape {
        }
      }
    }
  }
  attr {
    key: "dtype"
    value {
      type: DT_STRING
    }
  }
  attr {
    key: "value"
    value {
      tensor {
        dtype: DT_STRING
        tensor_shape {
        }
        string_val: "optimizer/agent_1/bias/RMSProp"
      }
    }
  }
}
node {
  name: "save/restore_slice_3/shape_and_slice"
  op: "Const"
  device: "/job:ps/task:5/device:CPU:0"
  attr {
    key: "_output_shapes"
    value {
      list {
        shape {
        }
      }
    }
  }
  attr {
    key: "dtype"
    value {
      type: DT_STRING
    }
  }
  attr {
    key: "value"
    value {
      tensor {
        dtype: DT_STRING
        tensor_shape {
        }
        string_val: ""
      }
    }
  }
}
node {
  name: "save/restore_slice_3"
  op: "RestoreSlice"
  input: "save/Const"
  input: "save/restore_slice_3/tensor_name"
  input: "save/restore_slice_3/shape_and_slice"
  device: "/job:ps/task:5/device:CPU:0"
  attr {
    key: "_output_shapes"
    value {
      list {
        shape {
          unknown_rank: true
        }
      }
    }
  }
  attr {
    key: "dt"
    value {
      type: DT_FLOAT
    }
  }
  attr {
    key: "preferred_shard"
    value {
      i: -1
    }
  }
}
node {
  name: "save/Assign_3"
  op: "Assign"
  input: "optimizer/agent_1/bias/RMSProp"
  input: "save/restore_slice_3"
  device: "/job:ps/task:5"
  attr {
    key: "T"
    value {
      type: DT_FLOAT
    }
  }
  attr {
    key: "_class"
    value {
      list {
        s: "loc:@agent_1/bias"
      }
    }
  }
  attr {
    key: "_output_shapes"
    value {
      list {
        shape {
          dim {
            size: 4
          }
        }
      }
    }
  }
  attr {
    key: "use_locking"
    value {
      b: true
    }
  }
  attr {
    key: "validate_shape"
    value {
      b: true
    }
  }
}
node {
  name: "save/restore_slice_4/tensor_name"
  op: "Const"
  device: "/job:ps/task:5/device:CPU:0"
  attr {
    key: "_output_shapes"
    value {
      list {
        shape {
        }
      }
    }
  }
  attr {
    key: "dtype"
    value {
      type: DT_STRING
    }
  }
  attr {
    key: "value"
    value {
      tensor {
        dtype: DT_STRING
        tensor_shape {
        }
        string_val: "optimizer/agent_1/bias/RMSProp_1"
      }
    }
  }
}
node {
  name: "save/restore_slice_4/shape_and_slice"
  op: "Const"
  device: "/job:ps/task:5/device:CPU:0"
  attr {
    key: "_output_shapes"
    value {
      list {
        shape {
        }
      }
    }
  }
  attr {
    key: "dtype"
    value {
      type: DT_STRING
    }
  }
  attr {
    key: "value"
    value {
      tensor {
        dtype: DT_STRING
        tensor_shape {
        }
        string_val: ""
      }
    }
  }
}
node {
  name: "save/restore_slice_4"
  op: "RestoreSlice"
  input: "save/Const"
  input: "save/restore_slice_4/tensor_name"
  input: "save/restore_slice_4/shape_and_slice"
  device: "/job:ps/task:5/device:CPU:0"
  attr {
    key: "_output_shapes"
    value {
      list {
        shape {
          unknown_rank: true
        }
      }
    }
  }
  attr {
    key: "dt"
    value {
      type: DT_FLOAT
    }
  }
  attr {
    key: "preferred_shard"
    value {
      i: -1
    }
  }
}
node {
  name: "save/Assign_4"
  op: "Assign"
  input: "optimizer/agent_1/bias/RMSProp_1"
  input: "save/restore_slice_4"
  device: "/job:ps/task:5"
  attr {
    key: "T"
    value {
      type: DT_FLOAT
    }
  }
  attr {
    key: "_class"
    value {
      list {
        s: "loc:@agent_1/bias"
      }
    }
  }
  attr {
    key: "_output_shapes"
    value {
      list {
        shape {
          dim {
            size: 4
          }
        }
      }
    }
  }
  attr {
    key: "use_locking"
    value {
      b: true
    }
  }
  attr {
    key: "validate_shape"
    value {
      b: true
    }
  }
}
node {
  name: "save/restore_slice_5/tensor_name"
  op: "Const"
  device: "/job:ps/task:4/device:CPU:0"
  attr {
    key: "_output_shapes"
    value {
      list {
        shape {
        }
      }
    }
  }
  attr {
    key: "dtype"
    value {
      type: DT_STRING
    }
  }
  attr {
    key: "value"
    value {
      tensor {
        dtype: DT_STRING
        tensor_shape {
        }
        string_val: "optimizer/agent_1/weight/RMSProp"
      }
    }
  }
}
node {
  name: "save/restore_slice_5/shape_and_slice"
  op: "Const"
  device: "/job:ps/task:4/device:CPU:0"
  attr {
    key: "_output_shapes"
    value {
      list {
        shape {
        }
      }
    }
  }
  attr {
    key: "dtype"
    value {
      type: DT_STRING
    }
  }
  attr {
    key: "value"
    value {
      tensor {
        dtype: DT_STRING
        tensor_shape {
        }
        string_val: ""
      }
    }
  }
}
node {
  name: "save/restore_slice_5"
  op: "RestoreSlice"
  input: "save/Const"
  input: "save/restore_slice_5/tensor_name"
  input: "save/restore_slice_5/shape_and_slice"
  device: "/job:ps/task:4/device:CPU:0"
  attr {
    key: "_output_shapes"
    value {
      list {
        shape {
          unknown_rank: true
        }
      }
    }
  }
  attr {
    key: "dt"
    value {
      type: DT_FLOAT
    }
  }
  attr {
    key: "preferred_shard"
    value {
      i: -1
    }
  }
}
node {
  name: "save/Assign_5"
  op: "Assign"
  input: "optimizer/agent_1/weight/RMSProp"
  input: "save/restore_slice_5"
  device: "/job:ps/task:4"
  attr {
    key: "T"
    value {
      type: DT_FLOAT
    }
  }
  attr {
    key: "_class"
    value {
      list {
        s: "loc:@agent_1/weight"
      }
    }
  }
  attr {
    key: "_output_shapes"
    value {
      list {
        shape {
          dim {
            size: 1000
          }
          dim {
            size: 4
          }
        }
      }
    }
  }
  attr {
    key: "use_locking"
    value {
      b: true
    }
  }
  attr {
    key: "validate_shape"
    value {
      b: true
    }
  }
}
node {
  name: "save/restore_slice_6/tensor_name"
  op: "Const"
  device: "/job:ps/task:4/device:CPU:0"
  attr {
    key: "_output_shapes"
    value {
      list {
        shape {
        }
      }
    }
  }
  attr {
    key: "dtype"
    value {
      type: DT_STRING
    }
  }
  attr {
    key: "value"
    value {
      tensor {
        dtype: DT_STRING
        tensor_shape {
        }
        string_val: "optimizer/agent_1/weight/RMSProp_1"
      }
    }
  }
}
node {
  name: "save/restore_slice_6/shape_and_slice"
  op: "Const"
  device: "/job:ps/task:4/device:CPU:0"
  attr {
    key: "_output_shapes"
    value {
      list {
        shape {
        }
      }
    }
  }
  attr {
    key: "dtype"
    value {
      type: DT_STRING
    }
  }
  attr {
    key: "value"
    value {
      tensor {
        dtype: DT_STRING
        tensor_shape {
        }
        string_val: ""
      }
    }
  }
}
node {
  name: "save/restore_slice_6"
  op: "RestoreSlice"
  input: "save/Const"
  input: "save/restore_slice_6/tensor_name"
  input: "save/restore_slice_6/shape_and_slice"
  device: "/job:ps/task:4/device:CPU:0"
  attr {
    key: "_output_shapes"
    value {
      list {
        shape {
          unknown_rank: true
        }
      }
    }
  }
  attr {
    key: "dt"
    value {
      type: DT_FLOAT
    }
  }
  attr {
    key: "preferred_shard"
    value {
      i: -1
    }
  }
}
node {
  name: "save/Assign_6"
  op: "Assign"
  input: "optimizer/agent_1/weight/RMSProp_1"
  input: "save/restore_slice_6"
  device: "/job:ps/task:4"
  attr {
    key: "T"
    value {
      type: DT_FLOAT
    }
  }
  attr {
    key: "_class"
    value {
      list {
        s: "loc:@agent_1/weight"
      }
    }
  }
  attr {
    key: "_output_shapes"
    value {
      list {
        shape {
          dim {
            size: 1000
          }
          dim {
            size: 4
          }
        }
      }
    }
  }
  attr {
    key: "use_locking"
    value {
      b: true
    }
  }
  attr {
    key: "validate_shape"
    value {
      b: true
    }
  }
}
node {
  name: "save/restore_slice_7/tensor_name"
  op: "Const"
  device: "/job:ps/task:3/device:CPU:0"
  attr {
    key: "_output_shapes"
    value {
      list {
        shape {
        }
      }
    }
  }
  attr {
    key: "dtype"
    value {
      type: DT_STRING
    }
  }
  attr {
    key: "value"
    value {
      tensor {
        dtype: DT_STRING
        tensor_shape {
        }
        string_val: "optimizer/task_1/bias/RMSProp"
      }
    }
  }
}
node {
  name: "save/restore_slice_7/shape_and_slice"
  op: "Const"
  device: "/job:ps/task:3/device:CPU:0"
  attr {
    key: "_output_shapes"
    value {
      list {
        shape {
        }
      }
    }
  }
  attr {
    key: "dtype"
    value {
      type: DT_STRING
    }
  }
  attr {
    key: "value"
    value {
      tensor {
        dtype: DT_STRING
        tensor_shape {
        }
        string_val: ""
      }
    }
  }
}
node {
  name: "save/restore_slice_7"
  op: "RestoreSlice"
  input: "save/Const"
  input: "save/restore_slice_7/tensor_name"
  input: "save/restore_slice_7/shape_and_slice"
  device: "/job:ps/task:3/device:CPU:0"
  attr {
    key: "_output_shapes"
    value {
      list {
        shape {
          unknown_rank: true
        }
      }
    }
  }
  attr {
    key: "dt"
    value {
      type: DT_FLOAT
    }
  }
  attr {
    key: "preferred_shard"
    value {
      i: -1
    }
  }
}
node {
  name: "save/Assign_7"
  op: "Assign"
  input: "optimizer/task_1/bias/RMSProp"
  input: "save/restore_slice_7"
  device: "/job:ps/task:3"
  attr {
    key: "T"
    value {
      type: DT_FLOAT
    }
  }
  attr {
    key: "_class"
    value {
      list {
        s: "loc:@task_1/bias"
      }
    }
  }
  attr {
    key: "_output_shapes"
    value {
      list {
        shape {
          dim {
            size: 1000
          }
        }
      }
    }
  }
  attr {
    key: "use_locking"
    value {
      b: true
    }
  }
  attr {
    key: "validate_shape"
    value {
      b: true
    }
  }
}
node {
  name: "save/restore_slice_8/tensor_name"
  op: "Const"
  device: "/job:ps/task:3/device:CPU:0"
  attr {
    key: "_output_shapes"
    value {
      list {
        shape {
        }
      }
    }
  }
  attr {
    key: "dtype"
    value {
      type: DT_STRING
    }
  }
  attr {
    key: "value"
    value {
      tensor {
        dtype: DT_STRING
        tensor_shape {
        }
        string_val: "optimizer/task_1/bias/RMSProp_1"
      }
    }
  }
}
node {
  name: "save/restore_slice_8/shape_and_slice"
  op: "Const"
  device: "/job:ps/task:3/device:CPU:0"
  attr {
    key: "_output_shapes"
    value {
      list {
        shape {
        }
      }
    }
  }
  attr {
    key: "dtype"
    value {
      type: DT_STRING
    }
  }
  attr {
    key: "value"
    value {
      tensor {
        dtype: DT_STRING
        tensor_shape {
        }
        string_val: ""
      }
    }
  }
}
node {
  name: "save/restore_slice_8"
  op: "RestoreSlice"
  input: "save/Const"
  input: "save/restore_slice_8/tensor_name"
  input: "save/restore_slice_8/shape_and_slice"
  device: "/job:ps/task:3/device:CPU:0"
  attr {
    key: "_output_shapes"
    value {
      list {
        shape {
          unknown_rank: true
        }
      }
    }
  }
  attr {
    key: "dt"
    value {
      type: DT_FLOAT
    }
  }
  attr {
    key: "preferred_shard"
    value {
      i: -1
    }
  }
}
node {
  name: "save/Assign_8"
  op: "Assign"
  input: "optimizer/task_1/bias/RMSProp_1"
  input: "save/restore_slice_8"
  device: "/job:ps/task:3"
  attr {
    key: "T"
    value {
      type: DT_FLOAT
    }
  }
  attr {
    key: "_class"
    value {
      list {
        s: "loc:@task_1/bias"
      }
    }
  }
  attr {
    key: "_output_shapes"
    value {
      list {
        shape {
          dim {
            size: 1000
          }
        }
      }
    }
  }
  attr {
    key: "use_locking"
    value {
      b: true
    }
  }
  attr {
    key: "validate_shape"
    value {
      b: true
    }
  }
}
node {
  name: "save/restore_slice_9/tensor_name"
  op: "Const"
  device: "/job:ps/task:2/device:CPU:0"
  attr {
    key: "_output_shapes"
    value {
      list {
        shape {
        }
      }
    }
  }
  attr {
    key: "dtype"
    value {
      type: DT_STRING
    }
  }
  attr {
    key: "value"
    value {
      tensor {
        dtype: DT_STRING
        tensor_shape {
        }
        string_val: "optimizer/task_1/weight/RMSProp"
      }
    }
  }
}
node {
  name: "save/restore_slice_9/shape_and_slice"
  op: "Const"
  device: "/job:ps/task:2/device:CPU:0"
  attr {
    key: "_output_shapes"
    value {
      list {
        shape {
        }
      }
    }
  }
  attr {
    key: "dtype"
    value {
      type: DT_STRING
    }
  }
  attr {
    key: "value"
    value {
      tensor {
        dtype: DT_STRING
        tensor_shape {
        }
        string_val: ""
      }
    }
  }
}
node {
  name: "save/restore_slice_9"
  op: "RestoreSlice"
  input: "save/Const"
  input: "save/restore_slice_9/tensor_name"
  input: "save/restore_slice_9/shape_and_slice"
  device: "/job:ps/task:2/device:CPU:0"
  attr {
    key: "_output_shapes"
    value {
      list {
        shape {
          unknown_rank: true
        }
      }
    }
  }
  attr {
    key: "dt"
    value {
      type: DT_FLOAT
    }
  }
  attr {
    key: "preferred_shard"
    value {
      i: -1
    }
  }
}
node {
  name: "save/Assign_9"
  op: "Assign"
  input: "optimizer/task_1/weight/RMSProp"
  input: "save/restore_slice_9"
  device: "/job:ps/task:2"
  attr {
    key: "T"
    value {
      type: DT_FLOAT
    }
  }
  attr {
    key: "_class"
    value {
      list {
        s: "loc:@task_1/weight"
      }
    }
  }
  attr {
    key: "_output_shapes"
    value {
      list {
        shape {
          dim {
            size: 1000
          }
          dim {
            size: 1000
          }
        }
      }
    }
  }
  attr {
    key: "use_locking"
    value {
      b: true
    }
  }
  attr {
    key: "validate_shape"
    value {
      b: true
    }
  }
}
node {
  name: "save/restore_slice_10/tensor_name"
  op: "Const"
  device: "/job:ps/task:2/device:CPU:0"
  attr {
    key: "_output_shapes"
    value {
      list {
        shape {
        }
      }
    }
  }
  attr {
    key: "dtype"
    value {
      type: DT_STRING
    }
  }
  attr {
    key: "value"
    value {
      tensor {
        dtype: DT_STRING
        tensor_shape {
        }
        string_val: "optimizer/task_1/weight/RMSProp_1"
      }
    }
  }
}
node {
  name: "save/restore_slice_10/shape_and_slice"
  op: "Const"
  device: "/job:ps/task:2/device:CPU:0"
  attr {
    key: "_output_shapes"
    value {
      list {
        shape {
        }
      }
    }
  }
  attr {
    key: "dtype"
    value {
      type: DT_STRING
    }
  }
  attr {
    key: "value"
    value {
      tensor {
        dtype: DT_STRING
        tensor_shape {
        }
        string_val: ""
      }
    }
  }
}
node {
  name: "save/restore_slice_10"
  op: "RestoreSlice"
  input: "save/Const"
  input: "save/restore_slice_10/tensor_name"
  input: "save/restore_slice_10/shape_and_slice"
  device: "/job:ps/task:2/device:CPU:0"
  attr {
    key: "_output_shapes"
    value {
      list {
        shape {
          unknown_rank: true
        }
      }
    }
  }
  attr {
    key: "dt"
    value {
      type: DT_FLOAT
    }
  }
  attr {
    key: "preferred_shard"
    value {
      i: -1
    }
  }
}
node {
  name: "save/Assign_10"
  op: "Assign"
  input: "optimizer/task_1/weight/RMSProp_1"
  input: "save/restore_slice_10"
  device: "/job:ps/task:2"
  attr {
    key: "T"
    value {
      type: DT_FLOAT
    }
  }
  attr {
    key: "_class"
    value {
      list {
        s: "loc:@task_1/weight"
      }
    }
  }
  attr {
    key: "_output_shapes"
    value {
      list {
        shape {
          dim {
            size: 1000
          }
          dim {
            size: 1000
          }
        }
      }
    }
  }
  attr {
    key: "use_locking"
    value {
      b: true
    }
  }
  attr {
    key: "validate_shape"
    value {
      b: true
    }
  }
}
node {
  name: "save/restore_slice_11/tensor_name"
  op: "Const"
  device: "/job:ps/task:1/device:CPU:0"
  attr {
    key: "_output_shapes"
    value {
      list {
        shape {
        }
      }
    }
  }
  attr {
    key: "dtype"
    value {
      type: DT_STRING
    }
  }
  attr {
    key: "value"
    value {
      tensor {
        dtype: DT_STRING
        tensor_shape {
        }
        string_val: "optimizer/world_1/bias/RMSProp"
      }
    }
  }
}
node {
  name: "save/restore_slice_11/shape_and_slice"
  op: "Const"
  device: "/job:ps/task:1/device:CPU:0"
  attr {
    key: "_output_shapes"
    value {
      list {
        shape {
        }
      }
    }
  }
  attr {
    key: "dtype"
    value {
      type: DT_STRING
    }
  }
  attr {
    key: "value"
    value {
      tensor {
        dtype: DT_STRING
        tensor_shape {
        }
        string_val: ""
      }
    }
  }
}
node {
  name: "save/restore_slice_11"
  op: "RestoreSlice"
  input: "save/Const"
  input: "save/restore_slice_11/tensor_name"
  input: "save/restore_slice_11/shape_and_slice"
  device: "/job:ps/task:1/device:CPU:0"
  attr {
    key: "_output_shapes"
    value {
      list {
        shape {
          unknown_rank: true
        }
      }
    }
  }
  attr {
    key: "dt"
    value {
      type: DT_FLOAT
    }
  }
  attr {
    key: "preferred_shard"
    value {
      i: -1
    }
  }
}
node {
  name: "save/Assign_11"
  op: "Assign"
  input: "optimizer/world_1/bias/RMSProp"
  input: "save/restore_slice_11"
  device: "/job:ps/task:1"
  attr {
    key: "T"
    value {
      type: DT_FLOAT
    }
  }
  attr {
    key: "_class"
    value {
      list {
        s: "loc:@world_1/bias"
      }
    }
  }
  attr {
    key: "_output_shapes"
    value {
      list {
        shape {
          dim {
            size: 1000
          }
        }
      }
    }
  }
  attr {
    key: "use_locking"
    value {
      b: true
    }
  }
  attr {
    key: "validate_shape"
    value {
      b: true
    }
  }
}
node {
  name: "save/restore_slice_12/tensor_name"
  op: "Const"
  device: "/job:ps/task:1/device:CPU:0"
  attr {
    key: "_output_shapes"
    value {
      list {
        shape {
        }
      }
    }
  }
  attr {
    key: "dtype"
    value {
      type: DT_STRING
    }
  }
  attr {
    key: "value"
    value {
      tensor {
        dtype: DT_STRING
        tensor_shape {
        }
        string_val: "optimizer/world_1/bias/RMSProp_1"
      }
    }
  }
}
node {
  name: "save/restore_slice_12/shape_and_slice"
  op: "Const"
  device: "/job:ps/task:1/device:CPU:0"
  attr {
    key: "_output_shapes"
    value {
      list {
        shape {
        }
      }
    }
  }
  attr {
    key: "dtype"
    value {
      type: DT_STRING
    }
  }
  attr {
    key: "value"
    value {
      tensor {
        dtype: DT_STRING
        tensor_shape {
        }
        string_val: ""
      }
    }
  }
}
node {
  name: "save/restore_slice_12"
  op: "RestoreSlice"
  input: "save/Const"
  input: "save/restore_slice_12/tensor_name"
  input: "save/restore_slice_12/shape_and_slice"
  device: "/job:ps/task:1/device:CPU:0"
  attr {
    key: "_output_shapes"
    value {
      list {
        shape {
          unknown_rank: true
        }
      }
    }
  }
  attr {
    key: "dt"
    value {
      type: DT_FLOAT
    }
  }
  attr {
    key: "preferred_shard"
    value {
      i: -1
    }
  }
}
node {
  name: "save/Assign_12"
  op: "Assign"
  input: "optimizer/world_1/bias/RMSProp_1"
  input: "save/restore_slice_12"
  device: "/job:ps/task:1"
  attr {
    key: "T"
    value {
      type: DT_FLOAT
    }
  }
  attr {
    key: "_class"
    value {
      list {
        s: "loc:@world_1/bias"
      }
    }
  }
  attr {
    key: "_output_shapes"
    value {
      list {
        shape {
          dim {
            size: 1000
          }
        }
      }
    }
  }
  attr {
    key: "use_locking"
    value {
      b: true
    }
  }
  attr {
    key: "validate_shape"
    value {
      b: true
    }
  }
}
node {
  name: "save/restore_slice_13/tensor_name"
  op: "Const"
  device: "/job:ps/task:0/device:CPU:0"
  attr {
    key: "_output_shapes"
    value {
      list {
        shape {
        }
      }
    }
  }
  attr {
    key: "dtype"
    value {
      type: DT_STRING
    }
  }
  attr {
    key: "value"
    value {
      tensor {
        dtype: DT_STRING
        tensor_shape {
        }
        string_val: "optimizer/world_1/weight/RMSProp"
      }
    }
  }
}
node {
  name: "save/restore_slice_13/shape_and_slice"
  op: "Const"
  device: "/job:ps/task:0/device:CPU:0"
  attr {
    key: "_output_shapes"
    value {
      list {
        shape {
        }
      }
    }
  }
  attr {
    key: "dtype"
    value {
      type: DT_STRING
    }
  }
  attr {
    key: "value"
    value {
      tensor {
        dtype: DT_STRING
        tensor_shape {
        }
        string_val: ""
      }
    }
  }
}
node {
  name: "save/restore_slice_13"
  op: "RestoreSlice"
  input: "save/Const"
  input: "save/restore_slice_13/tensor_name"
  input: "save/restore_slice_13/shape_and_slice"
  device: "/job:ps/task:0/device:CPU:0"
  attr {
    key: "_output_shapes"
    value {
      list {
        shape {
          unknown_rank: true
        }
      }
    }
  }
  attr {
    key: "dt"
    value {
      type: DT_FLOAT
    }
  }
  attr {
    key: "preferred_shard"
    value {
      i: -1
    }
  }
}
node {
  name: "save/Assign_13"
  op: "Assign"
  input: "optimizer/world_1/weight/RMSProp"
  input: "save/restore_slice_13"
  device: "/job:ps/task:0"
  attr {
    key: "T"
    value {
      type: DT_FLOAT
    }
  }
  attr {
    key: "_class"
    value {
      list {
        s: "loc:@world_1/weight"
      }
    }
  }
  attr {
    key: "_output_shapes"
    value {
      list {
        shape {
          dim {
            size: 144
          }
          dim {
            size: 1000
          }
        }
      }
    }
  }
  attr {
    key: "use_locking"
    value {
      b: true
    }
  }
  attr {
    key: "validate_shape"
    value {
      b: true
    }
  }
}
node {
  name: "save/restore_slice_14/tensor_name"
  op: "Const"
  device: "/job:ps/task:0/device:CPU:0"
  attr {
    key: "_output_shapes"
    value {
      list {
        shape {
        }
      }
    }
  }
  attr {
    key: "dtype"
    value {
      type: DT_STRING
    }
  }
  attr {
    key: "value"
    value {
      tensor {
        dtype: DT_STRING
        tensor_shape {
        }
        string_val: "optimizer/world_1/weight/RMSProp_1"
      }
    }
  }
}
node {
  name: "save/restore_slice_14/shape_and_slice"
  op: "Const"
  device: "/job:ps/task:0/device:CPU:0"
  attr {
    key: "_output_shapes"
    value {
      list {
        shape {
        }
      }
    }
  }
  attr {
    key: "dtype"
    value {
      type: DT_STRING
    }
  }
  attr {
    key: "value"
    value {
      tensor {
        dtype: DT_STRING
        tensor_shape {
        }
        string_val: ""
      }
    }
  }
}
node {
  name: "save/restore_slice_14"
  op: "RestoreSlice"
  input: "save/Const"
  input: "save/restore_slice_14/tensor_name"
  input: "save/restore_slice_14/shape_and_slice"
  device: "/job:ps/task:0/device:CPU:0"
  attr {
    key: "_output_shapes"
    value {
      list {
        shape {
          unknown_rank: true
        }
      }
    }
  }
  attr {
    key: "dt"
    value {
      type: DT_FLOAT
    }
  }
  attr {
    key: "preferred_shard"
    value {
      i: -1
    }
  }
}
node {
  name: "save/Assign_14"
  op: "Assign"
  input: "optimizer/world_1/weight/RMSProp_1"
  input: "save/restore_slice_14"
  device: "/job:ps/task:0"
  attr {
    key: "T"
    value {
      type: DT_FLOAT
    }
  }
  attr {
    key: "_class"
    value {
      list {
        s: "loc:@world_1/weight"
      }
    }
  }
  attr {
    key: "_output_shapes"
    value {
      list {
        shape {
          dim {
            size: 144
          }
          dim {
            size: 1000
          }
        }
      }
    }
  }
  attr {
    key: "use_locking"
    value {
      b: true
    }
  }
  attr {
    key: "validate_shape"
    value {
      b: true
    }
  }
}
node {
  name: "save/restore_slice_15/tensor_name"
  op: "Const"
  device: "/job:ps/task:3/device:CPU:0"
  attr {
    key: "_output_shapes"
    value {
      list {
        shape {
        }
      }
    }
  }
  attr {
    key: "dtype"
    value {
      type: DT_STRING
    }
  }
  attr {
    key: "value"
    value {
      tensor {
        dtype: DT_STRING
        tensor_shape {
        }
        string_val: "task_1/bias"
      }
    }
  }
}
node {
  name: "save/restore_slice_15/shape_and_slice"
  op: "Const"
  device: "/job:ps/task:3/device:CPU:0"
  attr {
    key: "_output_shapes"
    value {
      list {
        shape {
        }
      }
    }
  }
  attr {
    key: "dtype"
    value {
      type: DT_STRING
    }
  }
  attr {
    key: "value"
    value {
      tensor {
        dtype: DT_STRING
        tensor_shape {
        }
        string_val: ""
      }
    }
  }
}
node {
  name: "save/restore_slice_15"
  op: "RestoreSlice"
  input: "save/Const"
  input: "save/restore_slice_15/tensor_name"
  input: "save/restore_slice_15/shape_and_slice"
  device: "/job:ps/task:3/device:CPU:0"
  attr {
    key: "_output_shapes"
    value {
      list {
        shape {
          unknown_rank: true
        }
      }
    }
  }
  attr {
    key: "dt"
    value {
      type: DT_FLOAT
    }
  }
  attr {
    key: "preferred_shard"
    value {
      i: -1
    }
  }
}
node {
  name: "save/Assign_15"
  op: "Assign"
  input: "task_1/bias"
  input: "save/restore_slice_15"
  device: "/job:ps/task:3"
  attr {
    key: "T"
    value {
      type: DT_FLOAT
    }
  }
  attr {
    key: "_class"
    value {
      list {
        s: "loc:@task_1/bias"
      }
    }
  }
  attr {
    key: "_output_shapes"
    value {
      list {
        shape {
          dim {
            size: 1000
          }
        }
      }
    }
  }
  attr {
    key: "use_locking"
    value {
      b: true
    }
  }
  attr {
    key: "validate_shape"
    value {
      b: true
    }
  }
}
node {
  name: "save/restore_slice_16/tensor_name"
  op: "Const"
  device: "/job:ps/task:2/device:CPU:0"
  attr {
    key: "_output_shapes"
    value {
      list {
        shape {
        }
      }
    }
  }
  attr {
    key: "dtype"
    value {
      type: DT_STRING
    }
  }
  attr {
    key: "value"
    value {
      tensor {
        dtype: DT_STRING
        tensor_shape {
        }
        string_val: "task_1/weight"
      }
    }
  }
}
node {
  name: "save/restore_slice_16/shape_and_slice"
  op: "Const"
  device: "/job:ps/task:2/device:CPU:0"
  attr {
    key: "_output_shapes"
    value {
      list {
        shape {
        }
      }
    }
  }
  attr {
    key: "dtype"
    value {
      type: DT_STRING
    }
  }
  attr {
    key: "value"
    value {
      tensor {
        dtype: DT_STRING
        tensor_shape {
        }
        string_val: ""
      }
    }
  }
}
node {
  name: "save/restore_slice_16"
  op: "RestoreSlice"
  input: "save/Const"
  input: "save/restore_slice_16/tensor_name"
  input: "save/restore_slice_16/shape_and_slice"
  device: "/job:ps/task:2/device:CPU:0"
  attr {
    key: "_output_shapes"
    value {
      list {
        shape {
          unknown_rank: true
        }
      }
    }
  }
  attr {
    key: "dt"
    value {
      type: DT_FLOAT
    }
  }
  attr {
    key: "preferred_shard"
    value {
      i: -1
    }
  }
}
node {
  name: "save/Assign_16"
  op: "Assign"
  input: "task_1/weight"
  input: "save/restore_slice_16"
  device: "/job:ps/task:2"
  attr {
    key: "T"
    value {
      type: DT_FLOAT
    }
  }
  attr {
    key: "_class"
    value {
      list {
        s: "loc:@task_1/weight"
      }
    }
  }
  attr {
    key: "_output_shapes"
    value {
      list {
        shape {
          dim {
            size: 1000
          }
          dim {
            size: 1000
          }
        }
      }
    }
  }
  attr {
    key: "use_locking"
    value {
      b: true
    }
  }
  attr {
    key: "validate_shape"
    value {
      b: true
    }
  }
}
node {
  name: "save/restore_slice_17/tensor_name"
  op: "Const"
  device: "/job:ps/task:1/device:CPU:0"
  attr {
    key: "_output_shapes"
    value {
      list {
        shape {
        }
      }
    }
  }
  attr {
    key: "dtype"
    value {
      type: DT_STRING
    }
  }
  attr {
    key: "value"
    value {
      tensor {
        dtype: DT_STRING
        tensor_shape {
        }
        string_val: "world_1/bias"
      }
    }
  }
}
node {
  name: "save/restore_slice_17/shape_and_slice"
  op: "Const"
  device: "/job:ps/task:1/device:CPU:0"
  attr {
    key: "_output_shapes"
    value {
      list {
        shape {
        }
      }
    }
  }
  attr {
    key: "dtype"
    value {
      type: DT_STRING
    }
  }
  attr {
    key: "value"
    value {
      tensor {
        dtype: DT_STRING
        tensor_shape {
        }
        string_val: ""
      }
    }
  }
}
node {
  name: "save/restore_slice_17"
  op: "RestoreSlice"
  input: "save/Const"
  input: "save/restore_slice_17/tensor_name"
  input: "save/restore_slice_17/shape_and_slice"
  device: "/job:ps/task:1/device:CPU:0"
  attr {
    key: "_output_shapes"
    value {
      list {
        shape {
          unknown_rank: true
        }
      }
    }
  }
  attr {
    key: "dt"
    value {
      type: DT_FLOAT
    }
  }
  attr {
    key: "preferred_shard"
    value {
      i: -1
    }
  }
}
node {
  name: "save/Assign_17"
  op: "Assign"
  input: "world_1/bias"
  input: "save/restore_slice_17"
  device: "/job:ps/task:1"
  attr {
    key: "T"
    value {
      type: DT_FLOAT
    }
  }
  attr {
    key: "_class"
    value {
      list {
        s: "loc:@world_1/bias"
      }
    }
  }
  attr {
    key: "_output_shapes"
    value {
      list {
        shape {
          dim {
            size: 1000
          }
        }
      }
    }
  }
  attr {
    key: "use_locking"
    value {
      b: true
    }
  }
  attr {
    key: "validate_shape"
    value {
      b: true
    }
  }
}
node {
  name: "save/restore_slice_18/tensor_name"
  op: "Const"
  device: "/job:ps/task:0/device:CPU:0"
  attr {
    key: "_output_shapes"
    value {
      list {
        shape {
        }
      }
    }
  }
  attr {
    key: "dtype"
    value {
      type: DT_STRING
    }
  }
  attr {
    key: "value"
    value {
      tensor {
        dtype: DT_STRING
        tensor_shape {
        }
        string_val: "world_1/weight"
      }
    }
  }
}
node {
  name: "save/restore_slice_18/shape_and_slice"
  op: "Const"
  device: "/job:ps/task:0/device:CPU:0"
  attr {
    key: "_output_shapes"
    value {
      list {
        shape {
        }
      }
    }
  }
  attr {
    key: "dtype"
    value {
      type: DT_STRING
    }
  }
  attr {
    key: "value"
    value {
      tensor {
        dtype: DT_STRING
        tensor_shape {
        }
        string_val: ""
      }
    }
  }
}
node {
  name: "save/restore_slice_18"
  op: "RestoreSlice"
  input: "save/Const"
  input: "save/restore_slice_18/tensor_name"
  input: "save/restore_slice_18/shape_and_slice"
  device: "/job:ps/task:0/device:CPU:0"
  attr {
    key: "_output_shapes"
    value {
      list {
        shape {
          unknown_rank: true
        }
      }
    }
  }
  attr {
    key: "dt"
    value {
      type: DT_FLOAT
    }
  }
  attr {
    key: "preferred_shard"
    value {
      i: -1
    }
  }
}
node {
  name: "save/Assign_18"
  op: "Assign"
  input: "world_1/weight"
  input: "save/restore_slice_18"
  device: "/job:ps/task:0"
  attr {
    key: "T"
    value {
      type: DT_FLOAT
    }
  }
  attr {
    key: "_class"
    value {
      list {
        s: "loc:@world_1/weight"
      }
    }
  }
  attr {
    key: "_output_shapes"
    value {
      list {
        shape {
          dim {
            size: 144
          }
          dim {
            size: 1000
          }
        }
      }
    }
  }
  attr {
    key: "use_locking"
    value {
      b: true
    }
  }
  attr {
    key: "validate_shape"
    value {
      b: true
    }
  }
}
node {
  name: "save/restore_all/NoOp"
  op: "NoOp"
  input: "^save/Assign_13"
  input: "^save/Assign_14"
  input: "^save/Assign_18"
  device: "/job:ps/task:0"
}
node {
  name: "save/restore_all/NoOp_1"
  op: "NoOp"
  input: "^save/Assign_11"
  input: "^save/Assign_12"
  input: "^save/Assign_17"
  device: "/job:ps/task:1"
}
node {
  name: "save/restore_all/NoOp_2"
  op: "NoOp"
  input: "^save/Assign_9"
  input: "^save/Assign_10"
  input: "^save/Assign_16"
  device: "/job:ps/task:2"
}
node {
  name: "save/restore_all/NoOp_3"
  op: "NoOp"
  input: "^save/Assign_7"
  input: "^save/Assign_8"
  input: "^save/Assign_15"
  device: "/job:ps/task:3"
}
node {
  name: "save/restore_all/NoOp_4"
  op: "NoOp"
  input: "^save/Assign_1"
  input: "^save/Assign_5"
  input: "^save/Assign_6"
  device: "/job:ps/task:4"
}
node {
  name: "save/restore_all/NoOp_5"
  op: "NoOp"
  input: "^save/Assign"
  input: "^save/Assign_3"
  input: "^save/Assign_4"
  device: "/job:ps/task:5"
}
node {
  name: "save/restore_all/NoOp_6"
  op: "NoOp"
  input: "^save/Assign_2"
  device: "/job:ps/task:6"
}
node {
  name: "save/restore_all"
  op: "NoOp"
  input: "^save/restore_all/NoOp"
  input: "^save/restore_all/NoOp_1"
  input: "^save/restore_all/NoOp_2"
  input: "^save/restore_all/NoOp_3"
  input: "^save/restore_all/NoOp_4"
  input: "^save/restore_all/NoOp_5"
  input: "^save/restore_all/NoOp_6"
  device: "/job:worker"
}
node {
  name: "init/NoOp"
  op: "NoOp"
  input: "^world_1/weight/Assign"
  input: "^optimizer/world_1/weight/RMSProp/Assign"
  input: "^optimizer/world_1/weight/RMSProp_1/Assign"
  device: "/job:ps/task:0"
}
node {
  name: "init/NoOp_1"
  op: "NoOp"
  input: "^world_1/bias/Assign"
  input: "^optimizer/world_1/bias/RMSProp/Assign"
  input: "^optimizer/world_1/bias/RMSProp_1/Assign"
  device: "/job:ps/task:1"
}
node {
  name: "init/NoOp_2"
  op: "NoOp"
  input: "^task_1/weight/Assign"
  input: "^optimizer/task_1/weight/RMSProp/Assign"
  input: "^optimizer/task_1/weight/RMSProp_1/Assign"
  device: "/job:ps/task:2"
}
node {
  name: "init/NoOp_3"
  op: "NoOp"
  input: "^task_1/bias/Assign"
  input: "^optimizer/task_1/bias/RMSProp/Assign"
  input: "^optimizer/task_1/bias/RMSProp_1/Assign"
  device: "/job:ps/task:3"
}
node {
  name: "init/NoOp_4"
  op: "NoOp"
  input: "^agent_1/weight/Assign"
  input: "^optimizer/agent_1/weight/RMSProp/Assign"
  input: "^optimizer/agent_1/weight/RMSProp_1/Assign"
  device: "/job:ps/task:4"
}
node {
  name: "init/NoOp_5"
  op: "NoOp"
  input: "^agent_1/bias/Assign"
  input: "^optimizer/agent_1/bias/RMSProp/Assign"
  input: "^optimizer/agent_1/bias/RMSProp_1/Assign"
  device: "/job:ps/task:5"
}
node {
  name: "init/NoOp_6"
  op: "NoOp"
  input: "^global_vars/Variable/Assign"
  device: "/job:ps/task:6"
}
node {
  name: "init"
  op: "NoOp"
  input: "^init/NoOp"
  input: "^init/NoOp_1"
  input: "^init/NoOp_2"
  input: "^init/NoOp_3"
  input: "^init/NoOp_4"
  input: "^init/NoOp_5"
  input: "^init/NoOp_6"
  device: "/job:worker"
}
node {
  name: "IsVariableInitialized"
  op: "IsVariableInitialized"
  input: "world_1/weight"
  device: "/job:ps/task:0"
  attr {
    key: "_class"
    value {
      list {
        s: "loc:@world_1/weight"
      }
    }
  }
  attr {
    key: "_output_shapes"
    value {
      list {
        shape {
        }
      }
    }
  }
  attr {
    key: "dtype"
    value {
      type: DT_FLOAT
    }
  }
}
node {
  name: "IsVariableInitialized_1"
  op: "IsVariableInitialized"
  input: "world_1/bias"
  device: "/job:ps/task:1"
  attr {
    key: "_class"
    value {
      list {
        s: "loc:@world_1/bias"
      }
    }
  }
  attr {
    key: "_output_shapes"
    value {
      list {
        shape {
        }
      }
    }
  }
  attr {
    key: "dtype"
    value {
      type: DT_FLOAT
    }
  }
}
node {
  name: "IsVariableInitialized_2"
  op: "IsVariableInitialized"
  input: "task_1/weight"
  device: "/job:ps/task:2"
  attr {
    key: "_class"
    value {
      list {
        s: "loc:@task_1/weight"
      }
    }
  }
  attr {
    key: "_output_shapes"
    value {
      list {
        shape {
        }
      }
    }
  }
  attr {
    key: "dtype"
    value {
      type: DT_FLOAT
    }
  }
}
node {
  name: "IsVariableInitialized_3"
  op: "IsVariableInitialized"
  input: "task_1/bias"
  device: "/job:ps/task:3"
  attr {
    key: "_class"
    value {
      list {
        s: "loc:@task_1/bias"
      }
    }
  }
  attr {
    key: "_output_shapes"
    value {
      list {
        shape {
        }
      }
    }
  }
  attr {
    key: "dtype"
    value {
      type: DT_FLOAT
    }
  }
}
node {
  name: "IsVariableInitialized_4"
  op: "IsVariableInitialized"
  input: "agent_1/weight"
  device: "/job:ps/task:4"
  attr {
    key: "_class"
    value {
      list {
        s: "loc:@agent_1/weight"
      }
    }
  }
  attr {
    key: "_output_shapes"
    value {
      list {
        shape {
        }
      }
    }
  }
  attr {
    key: "dtype"
    value {
      type: DT_FLOAT
    }
  }
}
node {
  name: "IsVariableInitialized_5"
  op: "IsVariableInitialized"
  input: "agent_1/bias"
  device: "/job:ps/task:5"
  attr {
    key: "_class"
    value {
      list {
        s: "loc:@agent_1/bias"
      }
    }
  }
  attr {
    key: "_output_shapes"
    value {
      list {
        shape {
        }
      }
    }
  }
  attr {
    key: "dtype"
    value {
      type: DT_FLOAT
    }
  }
}
node {
  name: "IsVariableInitialized_6"
  op: "IsVariableInitialized"
  input: "optimizer/world_1/weight/RMSProp"
  device: "/job:ps/task:0"
  attr {
    key: "_class"
    value {
      list {
        s: "loc:@world_1/weight"
      }
    }
  }
  attr {
    key: "_output_shapes"
    value {
      list {
        shape {
        }
      }
    }
  }
  attr {
    key: "dtype"
    value {
      type: DT_FLOAT
    }
  }
}
node {
  name: "IsVariableInitialized_7"
  op: "IsVariableInitialized"
  input: "optimizer/world_1/weight/RMSProp_1"
  device: "/job:ps/task:0"
  attr {
    key: "_class"
    value {
      list {
        s: "loc:@world_1/weight"
      }
    }
  }
  attr {
    key: "_output_shapes"
    value {
      list {
        shape {
        }
      }
    }
  }
  attr {
    key: "dtype"
    value {
      type: DT_FLOAT
    }
  }
}
node {
  name: "IsVariableInitialized_8"
  op: "IsVariableInitialized"
  input: "optimizer/world_1/bias/RMSProp"
  device: "/job:ps/task:1"
  attr {
    key: "_class"
    value {
      list {
        s: "loc:@world_1/bias"
      }
    }
  }
  attr {
    key: "_output_shapes"
    value {
      list {
        shape {
        }
      }
    }
  }
  attr {
    key: "dtype"
    value {
      type: DT_FLOAT
    }
  }
}
node {
  name: "IsVariableInitialized_9"
  op: "IsVariableInitialized"
  input: "optimizer/world_1/bias/RMSProp_1"
  device: "/job:ps/task:1"
  attr {
    key: "_class"
    value {
      list {
        s: "loc:@world_1/bias"
      }
    }
  }
  attr {
    key: "_output_shapes"
    value {
      list {
        shape {
        }
      }
    }
  }
  attr {
    key: "dtype"
    value {
      type: DT_FLOAT
    }
  }
}
node {
  name: "IsVariableInitialized_10"
  op: "IsVariableInitialized"
  input: "optimizer/task_1/weight/RMSProp"
  device: "/job:ps/task:2"
  attr {
    key: "_class"
    value {
      list {
        s: "loc:@task_1/weight"
      }
    }
  }
  attr {
    key: "_output_shapes"
    value {
      list {
        shape {
        }
      }
    }
  }
  attr {
    key: "dtype"
    value {
      type: DT_FLOAT
    }
  }
}
node {
  name: "IsVariableInitialized_11"
  op: "IsVariableInitialized"
  input: "optimizer/task_1/weight/RMSProp_1"
  device: "/job:ps/task:2"
  attr {
    key: "_class"
    value {
      list {
        s: "loc:@task_1/weight"
      }
    }
  }
  attr {
    key: "_output_shapes"
    value {
      list {
        shape {
        }
      }
    }
  }
  attr {
    key: "dtype"
    value {
      type: DT_FLOAT
    }
  }
}
node {
  name: "IsVariableInitialized_12"
  op: "IsVariableInitialized"
  input: "optimizer/task_1/bias/RMSProp"
  device: "/job:ps/task:3"
  attr {
    key: "_class"
    value {
      list {
        s: "loc:@task_1/bias"
      }
    }
  }
  attr {
    key: "_output_shapes"
    value {
      list {
        shape {
        }
      }
    }
  }
  attr {
    key: "dtype"
    value {
      type: DT_FLOAT
    }
  }
}
node {
  name: "IsVariableInitialized_13"
  op: "IsVariableInitialized"
  input: "optimizer/task_1/bias/RMSProp_1"
  device: "/job:ps/task:3"
  attr {
    key: "_class"
    value {
      list {
        s: "loc:@task_1/bias"
      }
    }
  }
  attr {
    key: "_output_shapes"
    value {
      list {
        shape {
        }
      }
    }
  }
  attr {
    key: "dtype"
    value {
      type: DT_FLOAT
    }
  }
}
node {
  name: "IsVariableInitialized_14"
  op: "IsVariableInitialized"
  input: "optimizer/agent_1/weight/RMSProp"
  device: "/job:ps/task:4"
  attr {
    key: "_class"
    value {
      list {
        s: "loc:@agent_1/weight"
      }
    }
  }
  attr {
    key: "_output_shapes"
    value {
      list {
        shape {
        }
      }
    }
  }
  attr {
    key: "dtype"
    value {
      type: DT_FLOAT
    }
  }
}
node {
  name: "IsVariableInitialized_15"
  op: "IsVariableInitialized"
  input: "optimizer/agent_1/weight/RMSProp_1"
  device: "/job:ps/task:4"
  attr {
    key: "_class"
    value {
      list {
        s: "loc:@agent_1/weight"
      }
    }
  }
  attr {
    key: "_output_shapes"
    value {
      list {
        shape {
        }
      }
    }
  }
  attr {
    key: "dtype"
    value {
      type: DT_FLOAT
    }
  }
}
node {
  name: "IsVariableInitialized_16"
  op: "IsVariableInitialized"
  input: "optimizer/agent_1/bias/RMSProp"
  device: "/job:ps/task:5"
  attr {
    key: "_class"
    value {
      list {
        s: "loc:@agent_1/bias"
      }
    }
  }
  attr {
    key: "_output_shapes"
    value {
      list {
        shape {
        }
      }
    }
  }
  attr {
    key: "dtype"
    value {
      type: DT_FLOAT
    }
  }
}
node {
  name: "IsVariableInitialized_17"
  op: "IsVariableInitialized"
  input: "optimizer/agent_1/bias/RMSProp_1"
  device: "/job:ps/task:5"
  attr {
    key: "_class"
    value {
      list {
        s: "loc:@agent_1/bias"
      }
    }
  }
  attr {
    key: "_output_shapes"
    value {
      list {
        shape {
        }
      }
    }
  }
  attr {
    key: "dtype"
    value {
      type: DT_FLOAT
    }
  }
}
node {
  name: "IsVariableInitialized_18"
  op: "IsVariableInitialized"
  input: "global_vars/Variable"
  device: "/job:ps/task:6"
  attr {
    key: "_class"
    value {
      list {
        s: "loc:@global_vars/Variable"
      }
    }
  }
  attr {
    key: "_output_shapes"
    value {
      list {
        shape {
        }
      }
    }
  }
  attr {
    key: "dtype"
    value {
      type: DT_INT32
    }
  }
}
node {
  name: "pack"
  op: "Pack"
  input: "IsVariableInitialized"
  input: "IsVariableInitialized_1"
  input: "IsVariableInitialized_2"
  input: "IsVariableInitialized_3"
  input: "IsVariableInitialized_4"
  input: "IsVariableInitialized_5"
  input: "IsVariableInitialized_6"
  input: "IsVariableInitialized_7"
  input: "IsVariableInitialized_8"
  input: "IsVariableInitialized_9"
  input: "IsVariableInitialized_10"
  input: "IsVariableInitialized_11"
  input: "IsVariableInitialized_12"
  input: "IsVariableInitialized_13"
  input: "IsVariableInitialized_14"
  input: "IsVariableInitialized_15"
  input: "IsVariableInitialized_16"
  input: "IsVariableInitialized_17"
  input: "IsVariableInitialized_18"
  device: "/job:worker"
  attr {
    key: "N"
    value {
      i: 19
    }
  }
  attr {
    key: "T"
    value {
      type: DT_BOOL
    }
  }
  attr {
    key: "_output_shapes"
    value {
      list {
        shape {
          dim {
            size: 19
          }
        }
      }
    }
  }
}
node {
  name: "LogicalNot"
  op: "LogicalNot"
  input: "pack"
  device: "/job:worker"
  attr {
    key: "_output_shapes"
    value {
      list {
        shape {
          dim {
            size: 19
          }
        }
      }
    }
  }
}
node {
  name: "Const"
  op: "Const"
  device: "/job:worker"
  attr {
    key: "_output_shapes"
    value {
      list {
        shape {
          dim {
            size: 19
          }
        }
      }
    }
  }
  attr {
    key: "dtype"
    value {
      type: DT_STRING
    }
  }
  attr {
    key: "value"
    value {
      tensor {
        dtype: DT_STRING
        tensor_shape {
          dim {
            size: 19
          }
        }
        string_val: "world_1/weight"
        string_val: "world_1/bias"
        string_val: "task_1/weight"
        string_val: "task_1/bias"
        string_val: "agent_1/weight"
        string_val: "agent_1/bias"
        string_val: "optimizer/world_1/weight/RMSProp"
        string_val: "optimizer/world_1/weight/RMSProp_1"
        string_val: "optimizer/world_1/bias/RMSProp"
        string_val: "optimizer/world_1/bias/RMSProp_1"
        string_val: "optimizer/task_1/weight/RMSProp"
        string_val: "optimizer/task_1/weight/RMSProp_1"
        string_val: "optimizer/task_1/bias/RMSProp"
        string_val: "optimizer/task_1/bias/RMSProp_1"
        string_val: "optimizer/agent_1/weight/RMSProp"
        string_val: "optimizer/agent_1/weight/RMSProp_1"
        string_val: "optimizer/agent_1/bias/RMSProp"
        string_val: "optimizer/agent_1/bias/RMSProp_1"
        string_val: "global_vars/Variable"
      }
    }
  }
}
node {
  name: "report_uninitialized_variables/Shape"
  op: "Shape"
  input: "Const"
  device: "/job:worker"
  attr {
    key: "T"
    value {
      type: DT_STRING
    }
  }
  attr {
    key: "_output_shapes"
    value {
      list {
        shape {
          dim {
            size: 1
          }
        }
      }
    }
  }
}
node {
  name: "report_uninitialized_variables/Slice/begin"
  op: "Const"
  device: "/job:worker"
  attr {
    key: "_output_shapes"
    value {
      list {
        shape {
          dim {
            size: 1
          }
        }
      }
    }
  }
  attr {
    key: "dtype"
    value {
      type: DT_INT32
    }
  }
  attr {
    key: "value"
    value {
      tensor {
        dtype: DT_INT32
        tensor_shape {
          dim {
            size: 1
          }
        }
        int_val: 1
      }
    }
  }
}
node {
  name: "report_uninitialized_variables/Slice/size"
  op: "Const"
  device: "/job:worker"
  attr {
    key: "_output_shapes"
    value {
      list {
        shape {
          dim {
            size: 1
          }
        }
      }
    }
  }
  attr {
    key: "dtype"
    value {
      type: DT_INT32
    }
  }
  attr {
    key: "value"
    value {
      tensor {
        dtype: DT_INT32
        tensor_shape {
          dim {
            size: 1
          }
        }
        int_val: -1
      }
    }
  }
}
node {
  name: "report_uninitialized_variables/Slice"
  op: "Slice"
  input: "report_uninitialized_variables/Shape"
  input: "report_uninitialized_variables/Slice/begin"
  input: "report_uninitialized_variables/Slice/size"
  device: "/job:worker"
  attr {
    key: "Index"
    value {
      type: DT_INT32
    }
  }
  attr {
    key: "T"
    value {
      type: DT_INT32
    }
  }
  attr {
    key: "_output_shapes"
    value {
      list {
        shape {
          dim {
          }
        }
      }
    }
  }
}
node {
  name: "report_uninitialized_variables/concat/concat_dim"
  op: "Const"
  device: "/job:worker"
  attr {
    key: "_output_shapes"
    value {
      list {
        shape {
        }
      }
    }
  }
  attr {
    key: "dtype"
    value {
      type: DT_INT32
    }
  }
  attr {
    key: "value"
    value {
      tensor {
        dtype: DT_INT32
        tensor_shape {
        }
        int_val: 0
      }
    }
  }
}
node {
  name: "report_uninitialized_variables/concat/values_0"
  op: "Const"
  device: "/job:worker"
  attr {
    key: "_output_shapes"
    value {
      list {
        shape {
          dim {
            size: 1
          }
        }
      }
    }
  }
  attr {
    key: "dtype"
    value {
      type: DT_INT32
    }
  }
  attr {
    key: "value"
    value {
      tensor {
        dtype: DT_INT32
        tensor_shape {
          dim {
            size: 1
          }
        }
        int_val: -1
      }
    }
  }
}
node {
  name: "report_uninitialized_variables/concat"
  op: "Concat"
  input: "report_uninitialized_variables/concat/concat_dim"
  input: "report_uninitialized_variables/concat/values_0"
  input: "report_uninitialized_variables/Slice"
  device: "/job:worker"
  attr {
    key: "N"
    value {
      i: 2
    }
  }
  attr {
    key: "T"
    value {
      type: DT_INT32
    }
  }
  attr {
    key: "_output_shapes"
    value {
      list {
        shape {
          dim {
            size: 1
          }
        }
      }
    }
  }
}
node {
  name: "report_uninitialized_variables/Reshape"
  op: "Reshape"
  input: "Const"
  input: "report_uninitialized_variables/concat"
  device: "/job:worker"
  attr {
    key: "T"
    value {
      type: DT_STRING
    }
  }
  attr {
    key: "_output_shapes"
    value {
      list {
        shape {
          dim {
            size: 19
          }
        }
      }
    }
  }
}
node {
  name: "report_uninitialized_variables/Reshape_1/shape"
  op: "Const"
  device: "/job:worker"
  attr {
    key: "_output_shapes"
    value {
      list {
        shape {
          dim {
            size: 1
          }
        }
      }
    }
  }
  attr {
    key: "dtype"
    value {
      type: DT_INT32
    }
  }
  attr {
    key: "value"
    value {
      tensor {
        dtype: DT_INT32
        tensor_shape {
          dim {
            size: 1
          }
        }
        int_val: -1
      }
    }
  }
}
node {
  name: "report_uninitialized_variables/Reshape_1"
  op: "Reshape"
  input: "LogicalNot"
  input: "report_uninitialized_variables/Reshape_1/shape"
  device: "/job:worker"
  attr {
    key: "T"
    value {
      type: DT_BOOL
    }
  }
  attr {
    key: "_output_shapes"
    value {
      list {
        shape {
          dim {
            size: 19
          }
        }
      }
    }
  }
}
node {
  name: "report_uninitialized_variables/Where"
  op: "Where"
  input: "report_uninitialized_variables/Reshape_1"
  device: "/job:worker"
  attr {
    key: "_output_shapes"
    value {
      list {
        shape {
          dim {
            size: -1
          }
          dim {
            size: 1
          }
        }
      }
    }
  }
}
node {
  name: "report_uninitialized_variables/Squeeze"
  op: "Squeeze"
  input: "report_uninitialized_variables/Where"
  device: "/job:worker"
  attr {
    key: "T"
    value {
      type: DT_INT64
    }
  }
  attr {
    key: "_output_shapes"
    value {
      list {
        shape {
          dim {
            size: -1
          }
        }
      }
    }
  }
  attr {
    key: "squeeze_dims"
    value {
      list {
        i: 1
      }
    }
  }
}
node {
  name: "report_uninitialized_variables/Gather"
  op: "Gather"
  input: "report_uninitialized_variables/Reshape"
  input: "report_uninitialized_variables/Squeeze"
  device: "/job:worker"
  attr {
    key: "Tindices"
    value {
      type: DT_INT64
    }
  }
  attr {
    key: "Tparams"
    value {
      type: DT_STRING
    }
  }
  attr {
    key: "_output_shapes"
    value {
      list {
        shape {
          dim {
            size: -1
          }
        }
      }
    }
  }
  attr {
    key: "validate_indices"
    value {
      b: true
    }
  }
}
node {
  name: "init_1"
  op: "NoOp"
  device: "/job:worker"
}
node {
  name: "init_all_tables"
  op: "NoOp"
  device: "/job:worker"
}
node {
  name: "group_deps"
  op: "NoOp"
  input: "^init_1"
  input: "^init_all_tables"
  device: "/job:worker"
}
versions {
  producer: 9
}
